<?xml version="1.0"?>
<net name="runtime_gpu_graph" version="11">
	<layers>
		<layer id="0" name="samples" type="Input">
			<data shape="1,3,512,512" element_type="f32" execOrder="0" execTimeMcs="not_executed" originalLayersNames="samples" outputLayouts="bfyx" outputPrecisions="f32" primitiveType="wait_for_events__f32" runtimePrecision="f32" />
			<output>
				<port id="0" precision="FP32">
					<dim>1</dim>
					<dim>3</dim>
					<dim>512</dim>
					<dim>512</dim>
				</port>
			</output>
		</layer>
		<layer id="1" name="Convert_41878" type="Reorder">
			<data execOrder="372" execTimeMcs="not_executed" originalLayersNames="Convert_41878" outputLayouts="bfyx" outputPrecisions="f16" primitiveType="reorder_data_fast_b1__f32" runtimePrecision="f32" />
			<input>
				<port id="0" precision="FP32">
					<dim>1</dim>
					<dim>3</dim>
					<dim>512</dim>
					<dim>512</dim>
				</port>
			</input>
			<output>
				<port id="1" precision="FP16">
					<dim>1</dim>
					<dim>3</dim>
					<dim>512</dim>
					<dim>512</dim>
				</port>
			</output>
		</layer>
		<layer id="2" name="__module.backbone.0.body.bn1/aten::mul/Multiply_1" type="Convolution">
			<data execOrder="373" execTimeMcs="not_executed" originalLayersNames="__module.backbone.0.body.bn1/aten::mul/Multiply_1,__module.backbone.0.body.bn1/aten::add/Add,__module.backbone.0.body.relu/aten::relu_/Relu" outputLayouts="b_fs_yx_fsv16" outputPrecisions="f16" primitiveType="jit:ir__f16" runtimePrecision="f16" />
			<input>
				<port id="0" precision="FP16">
					<dim>1</dim>
					<dim>3</dim>
					<dim>512</dim>
					<dim>512</dim>
				</port>
			</input>
			<output>
				<port id="1" precision="FP16">
					<dim>1</dim>
					<dim>64</dim>
					<dim>256</dim>
					<dim>256</dim>
				</port>
			</output>
		</layer>
		<layer id="3" name="__module.backbone.0.body.maxpool/aten::max_pool2d/MaxPool" type="Pooling">
			<data execOrder="374" execTimeMcs="not_executed" originalLayersNames="__module.backbone.0.body.maxpool/aten::max_pool2d/MaxPool" outputLayouts="b_fs_yx_fsv16" outputPrecisions="f16" primitiveType="jit:ir__f16" runtimePrecision="f16" />
			<input>
				<port id="0" precision="FP16">
					<dim>1</dim>
					<dim>64</dim>
					<dim>256</dim>
					<dim>256</dim>
				</port>
			</input>
			<output>
				<port id="1" precision="FP16">
					<dim>1</dim>
					<dim>64</dim>
					<dim>128</dim>
					<dim>128</dim>
				</port>
				<port id="2" precision="FP16">
					<dim>1</dim>
					<dim>64</dim>
					<dim>128</dim>
					<dim>128</dim>
				</port>
			</output>
		</layer>
		<layer id="4" name="__module.backbone.0.body.layer1.0.bn1/aten::mul/Multiply_1" type="Convolution">
			<data execOrder="376" execTimeMcs="not_executed" originalLayersNames="__module.backbone.0.body.layer1.0.bn1/aten::mul/Multiply_1,__module.backbone.0.body.layer1.0.bn1/aten::add/Add,__module.backbone.0.body.layer1.0.relu/aten::relu_/Relu" outputLayouts="b_fs_yx_fsv16" outputPrecisions="f16" primitiveType="jit:ir__f16" runtimePrecision="f16" />
			<input>
				<port id="0" precision="FP16">
					<dim>1</dim>
					<dim>64</dim>
					<dim>128</dim>
					<dim>128</dim>
				</port>
			</input>
			<output>
				<port id="1" precision="FP16">
					<dim>1</dim>
					<dim>64</dim>
					<dim>128</dim>
					<dim>128</dim>
				</port>
			</output>
		</layer>
		<layer id="5" name="__module.backbone.0.body.layer1.0.bn2/aten::mul/Multiply_1" type="Convolution">
			<data execOrder="377" execTimeMcs="not_executed" originalLayersNames="__module.backbone.0.body.layer1.0.bn2/aten::mul/Multiply_1,__module.backbone.0.body.layer1.0.bn2/aten::add/Add,__module.backbone.0.body.layer1.0.relu/aten::relu_/Relu_1" outputLayouts="b_fs_yx_fsv16" outputPrecisions="f16" primitiveType="jit:ir__f16" runtimePrecision="f16" />
			<input>
				<port id="0" precision="FP16">
					<dim>1</dim>
					<dim>64</dim>
					<dim>128</dim>
					<dim>128</dim>
				</port>
			</input>
			<output>
				<port id="1" precision="FP16">
					<dim>1</dim>
					<dim>64</dim>
					<dim>128</dim>
					<dim>128</dim>
				</port>
			</output>
		</layer>
		<layer id="6" name="__module.backbone.0.body.layer1.0.downsample.1/aten::mul/Multiply_1" type="Convolution">
			<data execOrder="375" execTimeMcs="not_executed" originalLayersNames="__module.backbone.0.body.layer1.0.downsample.1/aten::mul/Multiply_1,__module.backbone.0.body.layer1.0.downsample.1/aten::add/Add" outputLayouts="b_fs_yx_fsv16" outputPrecisions="f16" primitiveType="jit:ir__f16" runtimePrecision="f16" />
			<input>
				<port id="0" precision="FP16">
					<dim>1</dim>
					<dim>64</dim>
					<dim>128</dim>
					<dim>128</dim>
				</port>
			</input>
			<output>
				<port id="1" precision="FP16">
					<dim>1</dim>
					<dim>256</dim>
					<dim>128</dim>
					<dim>128</dim>
				</port>
			</output>
		</layer>
		<layer id="7" name="__module.backbone.0.body.layer1.0.bn3/aten::mul/Multiply_1" type="Convolution">
			<data execOrder="379" execTimeMcs="not_executed" originalLayersNames="__module.backbone.0.body.layer1.0.bn3/aten::mul/Multiply_1,__module.backbone.0.body.layer1.0.bn3/aten::add/Add,__module.backbone.0.body.layer1.0/aten::add_/Add,__module.backbone.0.body.layer1.0.relu/aten::relu_/Relu_2" outputLayouts="b_fs_yx_fsv16" outputPrecisions="f16" primitiveType="jit:ir__f16" runtimePrecision="f16" />
			<input>
				<port id="0" precision="FP16">
					<dim>1</dim>
					<dim>64</dim>
					<dim>128</dim>
					<dim>128</dim>
				</port>
				<port id="1" precision="FP16">
					<dim>1</dim>
					<dim>256</dim>
					<dim>128</dim>
					<dim>128</dim>
				</port>
			</input>
			<output>
				<port id="2" precision="FP16">
					<dim>1</dim>
					<dim>256</dim>
					<dim>128</dim>
					<dim>128</dim>
				</port>
				<port id="3" precision="FP16">
					<dim>1</dim>
					<dim>256</dim>
					<dim>128</dim>
					<dim>128</dim>
				</port>
			</output>
		</layer>
		<layer id="8" name="__module.backbone.0.body.layer1.1.bn1/aten::mul/Multiply_1" type="Convolution">
			<data execOrder="380" execTimeMcs="not_executed" originalLayersNames="__module.backbone.0.body.layer1.1.bn1/aten::mul/Multiply_1,__module.backbone.0.body.layer1.1.bn1/aten::add/Add,__module.backbone.0.body.layer1.1.relu/aten::relu_/Relu" outputLayouts="b_fs_yx_fsv16" outputPrecisions="f16" primitiveType="jit:ir__f16" runtimePrecision="f16" />
			<input>
				<port id="0" precision="FP16">
					<dim>1</dim>
					<dim>256</dim>
					<dim>128</dim>
					<dim>128</dim>
				</port>
			</input>
			<output>
				<port id="1" precision="FP16">
					<dim>1</dim>
					<dim>64</dim>
					<dim>128</dim>
					<dim>128</dim>
				</port>
			</output>
		</layer>
		<layer id="9" name="__module.backbone.0.body.layer1.1.bn2/aten::mul/Multiply_1" type="Convolution">
			<data execOrder="382" execTimeMcs="not_executed" originalLayersNames="__module.backbone.0.body.layer1.1.bn2/aten::mul/Multiply_1,__module.backbone.0.body.layer1.1.bn2/aten::add/Add,__module.backbone.0.body.layer1.1.relu/aten::relu_/Relu_1" outputLayouts="b_fs_yx_fsv16" outputPrecisions="f16" primitiveType="jit:ir__f16" runtimePrecision="f16" />
			<input>
				<port id="0" precision="FP16">
					<dim>1</dim>
					<dim>64</dim>
					<dim>128</dim>
					<dim>128</dim>
				</port>
			</input>
			<output>
				<port id="1" precision="FP16">
					<dim>1</dim>
					<dim>64</dim>
					<dim>128</dim>
					<dim>128</dim>
				</port>
			</output>
		</layer>
		<layer id="10" name="__module.backbone.0.body.layer1.1.bn3/aten::mul/Multiply_1" type="Convolution">
			<data execOrder="383" execTimeMcs="not_executed" originalLayersNames="__module.backbone.0.body.layer1.1.bn3/aten::mul/Multiply_1,__module.backbone.0.body.layer1.1.bn3/aten::add/Add,__module.backbone.0.body.layer1.1/aten::add_/Add,__module.backbone.0.body.layer1.1.relu/aten::relu_/Relu_2" outputLayouts="b_fs_yx_fsv16" outputPrecisions="f16" primitiveType="jit:ir__f16" runtimePrecision="f16" />
			<input>
				<port id="0" precision="FP16">
					<dim>1</dim>
					<dim>64</dim>
					<dim>128</dim>
					<dim>128</dim>
				</port>
				<port id="1" precision="FP16">
					<dim>1</dim>
					<dim>256</dim>
					<dim>128</dim>
					<dim>128</dim>
				</port>
			</input>
			<output>
				<port id="2" precision="FP16">
					<dim>1</dim>
					<dim>256</dim>
					<dim>128</dim>
					<dim>128</dim>
				</port>
				<port id="3" precision="FP16">
					<dim>1</dim>
					<dim>256</dim>
					<dim>128</dim>
					<dim>128</dim>
				</port>
			</output>
		</layer>
		<layer id="11" name="__module.backbone.0.body.layer1.2.bn1/aten::mul/Multiply_1" type="Convolution">
			<data execOrder="385" execTimeMcs="not_executed" originalLayersNames="__module.backbone.0.body.layer1.2.bn1/aten::mul/Multiply_1,__module.backbone.0.body.layer1.2.bn1/aten::add/Add,__module.backbone.0.body.layer1.2.relu/aten::relu_/Relu" outputLayouts="b_fs_yx_fsv16" outputPrecisions="f16" primitiveType="jit:ir__f16" runtimePrecision="f16" />
			<input>
				<port id="0" precision="FP16">
					<dim>1</dim>
					<dim>256</dim>
					<dim>128</dim>
					<dim>128</dim>
				</port>
			</input>
			<output>
				<port id="1" precision="FP16">
					<dim>1</dim>
					<dim>64</dim>
					<dim>128</dim>
					<dim>128</dim>
				</port>
			</output>
		</layer>
		<layer id="12" name="__module.backbone.0.body.layer1.2.bn2/aten::mul/Multiply_1" type="Convolution">
			<data execOrder="386" execTimeMcs="not_executed" originalLayersNames="__module.backbone.0.body.layer1.2.bn2/aten::mul/Multiply_1,__module.backbone.0.body.layer1.2.bn2/aten::add/Add,__module.backbone.0.body.layer1.2.relu/aten::relu_/Relu_1" outputLayouts="b_fs_yx_fsv16" outputPrecisions="f16" primitiveType="jit:ir__f16" runtimePrecision="f16" />
			<input>
				<port id="0" precision="FP16">
					<dim>1</dim>
					<dim>64</dim>
					<dim>128</dim>
					<dim>128</dim>
				</port>
			</input>
			<output>
				<port id="1" precision="FP16">
					<dim>1</dim>
					<dim>64</dim>
					<dim>128</dim>
					<dim>128</dim>
				</port>
			</output>
		</layer>
		<layer id="13" name="__module.backbone.0.body.layer1.2.bn3/aten::mul/Multiply_1" type="Convolution">
			<data execOrder="387" execTimeMcs="not_executed" originalLayersNames="__module.backbone.0.body.layer1.2.bn3/aten::mul/Multiply_1,__module.backbone.0.body.layer1.2.bn3/aten::add/Add,__module.backbone.0.body.layer1.2/aten::add_/Add,__module.backbone.0.body.layer1.2.relu/aten::relu_/Relu_2" outputLayouts="b_fs_yx_fsv16" outputPrecisions="f16" primitiveType="jit:ir__f16" runtimePrecision="f16" />
			<input>
				<port id="0" precision="FP16">
					<dim>1</dim>
					<dim>64</dim>
					<dim>128</dim>
					<dim>128</dim>
				</port>
				<port id="1" precision="FP16">
					<dim>1</dim>
					<dim>256</dim>
					<dim>128</dim>
					<dim>128</dim>
				</port>
			</input>
			<output>
				<port id="2" precision="FP16">
					<dim>1</dim>
					<dim>256</dim>
					<dim>128</dim>
					<dim>128</dim>
				</port>
				<port id="3" precision="FP16">
					<dim>1</dim>
					<dim>256</dim>
					<dim>128</dim>
					<dim>128</dim>
				</port>
			</output>
		</layer>
		<layer id="14" name="__module.backbone.0.body.layer2.0.bn1/aten::mul/Multiply_1" type="Convolution">
			<data execOrder="389" execTimeMcs="not_executed" originalLayersNames="__module.backbone.0.body.layer2.0.bn1/aten::mul/Multiply_1,__module.backbone.0.body.layer2.0.bn1/aten::add/Add,__module.backbone.0.body.layer2.0.relu/aten::relu_/Relu" outputLayouts="b_fs_yx_fsv16" outputPrecisions="f16" primitiveType="jit:ir__f16" runtimePrecision="f16" />
			<input>
				<port id="0" precision="FP16">
					<dim>1</dim>
					<dim>256</dim>
					<dim>128</dim>
					<dim>128</dim>
				</port>
			</input>
			<output>
				<port id="1" precision="FP16">
					<dim>1</dim>
					<dim>128</dim>
					<dim>128</dim>
					<dim>128</dim>
				</port>
			</output>
		</layer>
		<layer id="15" name="__module.backbone.0.body.layer2.0.bn2/aten::mul/Multiply_1" type="Convolution">
			<data execOrder="390" execTimeMcs="not_executed" originalLayersNames="__module.backbone.0.body.layer2.0.bn2/aten::mul/Multiply_1,__module.backbone.0.body.layer2.0.bn2/aten::add/Add,__module.backbone.0.body.layer2.0.relu/aten::relu_/Relu_1" outputLayouts="b_fs_yx_fsv16" outputPrecisions="f16" primitiveType="jit:ir__f16" runtimePrecision="f16" />
			<input>
				<port id="0" precision="FP16">
					<dim>1</dim>
					<dim>128</dim>
					<dim>128</dim>
					<dim>128</dim>
				</port>
			</input>
			<output>
				<port id="1" precision="FP16">
					<dim>1</dim>
					<dim>128</dim>
					<dim>64</dim>
					<dim>64</dim>
				</port>
			</output>
		</layer>
		<layer id="16" name="__module.backbone.0.body.layer2.0.downsample.1/aten::mul/Multiply_1" type="Convolution">
			<data execOrder="388" execTimeMcs="not_executed" originalLayersNames="__module.backbone.0.body.layer2.0.downsample.1/aten::mul/Multiply_1,__module.backbone.0.body.layer2.0.downsample.1/aten::add/Add" outputLayouts="b_fs_yx_fsv16" outputPrecisions="f16" primitiveType="jit:ir__f16" runtimePrecision="f16" />
			<input>
				<port id="0" precision="FP16">
					<dim>1</dim>
					<dim>256</dim>
					<dim>128</dim>
					<dim>128</dim>
				</port>
			</input>
			<output>
				<port id="1" precision="FP16">
					<dim>1</dim>
					<dim>512</dim>
					<dim>64</dim>
					<dim>64</dim>
				</port>
			</output>
		</layer>
		<layer id="17" name="__module.backbone.0.body.layer2.0.bn3/aten::mul/Multiply_1" type="Convolution">
			<data execOrder="391" execTimeMcs="not_executed" originalLayersNames="__module.backbone.0.body.layer2.0.bn3/aten::mul/Multiply_1,__module.backbone.0.body.layer2.0.bn3/aten::add/Add,__module.backbone.0.body.layer2.0/aten::add_/Add,__module.backbone.0.body.layer2.0.relu/aten::relu_/Relu_2" outputLayouts="b_fs_yx_fsv16" outputPrecisions="f16" primitiveType="jit:ir__f16" runtimePrecision="f16" />
			<input>
				<port id="0" precision="FP16">
					<dim>1</dim>
					<dim>128</dim>
					<dim>64</dim>
					<dim>64</dim>
				</port>
				<port id="1" precision="FP16">
					<dim>1</dim>
					<dim>512</dim>
					<dim>64</dim>
					<dim>64</dim>
				</port>
			</input>
			<output>
				<port id="2" precision="FP16">
					<dim>1</dim>
					<dim>512</dim>
					<dim>64</dim>
					<dim>64</dim>
				</port>
				<port id="3" precision="FP16">
					<dim>1</dim>
					<dim>512</dim>
					<dim>64</dim>
					<dim>64</dim>
				</port>
			</output>
		</layer>
		<layer id="18" name="__module.backbone.0.body.layer2.1.bn1/aten::mul/Multiply_1" type="Convolution">
			<data execOrder="392" execTimeMcs="not_executed" originalLayersNames="__module.backbone.0.body.layer2.1.bn1/aten::mul/Multiply_1,__module.backbone.0.body.layer2.1.bn1/aten::add/Add,__module.backbone.0.body.layer2.1.relu/aten::relu_/Relu" outputLayouts="b_fs_yx_fsv16" outputPrecisions="f16" primitiveType="jit:ir__f16" runtimePrecision="f16" />
			<input>
				<port id="0" precision="FP16">
					<dim>1</dim>
					<dim>512</dim>
					<dim>64</dim>
					<dim>64</dim>
				</port>
			</input>
			<output>
				<port id="1" precision="FP16">
					<dim>1</dim>
					<dim>128</dim>
					<dim>64</dim>
					<dim>64</dim>
				</port>
			</output>
		</layer>
		<layer id="19" name="__module.backbone.0.body.layer2.1.bn2/aten::mul/Multiply_1" type="Convolution">
			<data execOrder="393" execTimeMcs="not_executed" originalLayersNames="__module.backbone.0.body.layer2.1.bn2/aten::mul/Multiply_1,__module.backbone.0.body.layer2.1.bn2/aten::add/Add,__module.backbone.0.body.layer2.1.relu/aten::relu_/Relu_1" outputLayouts="b_fs_yx_fsv16" outputPrecisions="f16" primitiveType="jit:ir__f16" runtimePrecision="f16" />
			<input>
				<port id="0" precision="FP16">
					<dim>1</dim>
					<dim>128</dim>
					<dim>64</dim>
					<dim>64</dim>
				</port>
			</input>
			<output>
				<port id="1" precision="FP16">
					<dim>1</dim>
					<dim>128</dim>
					<dim>64</dim>
					<dim>64</dim>
				</port>
			</output>
		</layer>
		<layer id="20" name="__module.backbone.0.body.layer2.1.bn3/aten::mul/Multiply_1" type="Convolution">
			<data execOrder="394" execTimeMcs="not_executed" originalLayersNames="__module.backbone.0.body.layer2.1.bn3/aten::mul/Multiply_1,__module.backbone.0.body.layer2.1.bn3/aten::add/Add,__module.backbone.0.body.layer2.1/aten::add_/Add,__module.backbone.0.body.layer2.1.relu/aten::relu_/Relu_2" outputLayouts="b_fs_yx_fsv16" outputPrecisions="f16" primitiveType="jit:ir__f16" runtimePrecision="f16" />
			<input>
				<port id="0" precision="FP16">
					<dim>1</dim>
					<dim>128</dim>
					<dim>64</dim>
					<dim>64</dim>
				</port>
				<port id="1" precision="FP16">
					<dim>1</dim>
					<dim>512</dim>
					<dim>64</dim>
					<dim>64</dim>
				</port>
			</input>
			<output>
				<port id="2" precision="FP16">
					<dim>1</dim>
					<dim>512</dim>
					<dim>64</dim>
					<dim>64</dim>
				</port>
				<port id="3" precision="FP16">
					<dim>1</dim>
					<dim>512</dim>
					<dim>64</dim>
					<dim>64</dim>
				</port>
			</output>
		</layer>
		<layer id="21" name="__module.backbone.0.body.layer2.2.bn1/aten::mul/Multiply_1" type="Convolution">
			<data execOrder="395" execTimeMcs="not_executed" originalLayersNames="__module.backbone.0.body.layer2.2.bn1/aten::mul/Multiply_1,__module.backbone.0.body.layer2.2.bn1/aten::add/Add,__module.backbone.0.body.layer2.2.relu/aten::relu_/Relu" outputLayouts="b_fs_yx_fsv16" outputPrecisions="f16" primitiveType="jit:ir__f16" runtimePrecision="f16" />
			<input>
				<port id="0" precision="FP16">
					<dim>1</dim>
					<dim>512</dim>
					<dim>64</dim>
					<dim>64</dim>
				</port>
			</input>
			<output>
				<port id="1" precision="FP16">
					<dim>1</dim>
					<dim>128</dim>
					<dim>64</dim>
					<dim>64</dim>
				</port>
			</output>
		</layer>
		<layer id="22" name="__module.backbone.0.body.layer2.2.bn2/aten::mul/Multiply_1" type="Convolution">
			<data execOrder="396" execTimeMcs="not_executed" originalLayersNames="__module.backbone.0.body.layer2.2.bn2/aten::mul/Multiply_1,__module.backbone.0.body.layer2.2.bn2/aten::add/Add,__module.backbone.0.body.layer2.2.relu/aten::relu_/Relu_1" outputLayouts="b_fs_yx_fsv16" outputPrecisions="f16" primitiveType="jit:ir__f16" runtimePrecision="f16" />
			<input>
				<port id="0" precision="FP16">
					<dim>1</dim>
					<dim>128</dim>
					<dim>64</dim>
					<dim>64</dim>
				</port>
			</input>
			<output>
				<port id="1" precision="FP16">
					<dim>1</dim>
					<dim>128</dim>
					<dim>64</dim>
					<dim>64</dim>
				</port>
			</output>
		</layer>
		<layer id="23" name="__module.backbone.0.body.layer2.2.bn3/aten::mul/Multiply_1" type="Convolution">
			<data execOrder="397" execTimeMcs="not_executed" originalLayersNames="__module.backbone.0.body.layer2.2.bn3/aten::mul/Multiply_1,__module.backbone.0.body.layer2.2.bn3/aten::add/Add,__module.backbone.0.body.layer2.2/aten::add_/Add,__module.backbone.0.body.layer2.2.relu/aten::relu_/Relu_2" outputLayouts="b_fs_yx_fsv16" outputPrecisions="f16" primitiveType="jit:ir__f16" runtimePrecision="f16" />
			<input>
				<port id="0" precision="FP16">
					<dim>1</dim>
					<dim>128</dim>
					<dim>64</dim>
					<dim>64</dim>
				</port>
				<port id="1" precision="FP16">
					<dim>1</dim>
					<dim>512</dim>
					<dim>64</dim>
					<dim>64</dim>
				</port>
			</input>
			<output>
				<port id="2" precision="FP16">
					<dim>1</dim>
					<dim>512</dim>
					<dim>64</dim>
					<dim>64</dim>
				</port>
				<port id="3" precision="FP16">
					<dim>1</dim>
					<dim>512</dim>
					<dim>64</dim>
					<dim>64</dim>
				</port>
			</output>
		</layer>
		<layer id="24" name="__module.backbone.0.body.layer2.3.bn1/aten::mul/Multiply_1" type="Convolution">
			<data execOrder="398" execTimeMcs="not_executed" originalLayersNames="__module.backbone.0.body.layer2.3.bn1/aten::mul/Multiply_1,__module.backbone.0.body.layer2.3.bn1/aten::add/Add,__module.backbone.0.body.layer2.3.relu/aten::relu_/Relu" outputLayouts="b_fs_yx_fsv16" outputPrecisions="f16" primitiveType="jit:ir__f16" runtimePrecision="f16" />
			<input>
				<port id="0" precision="FP16">
					<dim>1</dim>
					<dim>512</dim>
					<dim>64</dim>
					<dim>64</dim>
				</port>
			</input>
			<output>
				<port id="1" precision="FP16">
					<dim>1</dim>
					<dim>128</dim>
					<dim>64</dim>
					<dim>64</dim>
				</port>
			</output>
		</layer>
		<layer id="25" name="__module.backbone.0.body.layer2.3.bn2/aten::mul/Multiply_1" type="Convolution">
			<data execOrder="399" execTimeMcs="not_executed" originalLayersNames="__module.backbone.0.body.layer2.3.bn2/aten::mul/Multiply_1,__module.backbone.0.body.layer2.3.bn2/aten::add/Add,__module.backbone.0.body.layer2.3.relu/aten::relu_/Relu_1" outputLayouts="b_fs_yx_fsv16" outputPrecisions="f16" primitiveType="jit:ir__f16" runtimePrecision="f16" />
			<input>
				<port id="0" precision="FP16">
					<dim>1</dim>
					<dim>128</dim>
					<dim>64</dim>
					<dim>64</dim>
				</port>
			</input>
			<output>
				<port id="1" precision="FP16">
					<dim>1</dim>
					<dim>128</dim>
					<dim>64</dim>
					<dim>64</dim>
				</port>
			</output>
		</layer>
		<layer id="26" name="__module.backbone.0.body.layer2.3.bn3/aten::mul/Multiply_1" type="Convolution">
			<data execOrder="400" execTimeMcs="not_executed" originalLayersNames="__module.backbone.0.body.layer2.3.bn3/aten::mul/Multiply_1,__module.backbone.0.body.layer2.3.bn3/aten::add/Add,__module.backbone.0.body.layer2.3/aten::add_/Add,__module.backbone.0.body.layer2.3.relu/aten::relu_/Relu_2" outputLayouts="b_fs_yx_fsv16" outputPrecisions="f16" primitiveType="jit:ir__f16" runtimePrecision="f16" />
			<input>
				<port id="0" precision="FP16">
					<dim>1</dim>
					<dim>128</dim>
					<dim>64</dim>
					<dim>64</dim>
				</port>
				<port id="1" precision="FP16">
					<dim>1</dim>
					<dim>512</dim>
					<dim>64</dim>
					<dim>64</dim>
				</port>
			</input>
			<output>
				<port id="2" precision="FP16">
					<dim>1</dim>
					<dim>512</dim>
					<dim>64</dim>
					<dim>64</dim>
				</port>
				<port id="3" precision="FP16">
					<dim>1</dim>
					<dim>512</dim>
					<dim>64</dim>
					<dim>64</dim>
				</port>
			</output>
		</layer>
		<layer id="27" name="__module.backbone.0.body.layer3.0.bn1/aten::mul/Multiply_1" type="Convolution">
			<data execOrder="402" execTimeMcs="not_executed" originalLayersNames="__module.backbone.0.body.layer3.0.bn1/aten::mul/Multiply_1,__module.backbone.0.body.layer3.0.bn1/aten::add/Add,__module.backbone.0.body.layer3.0.relu/aten::relu_/Relu" outputLayouts="b_fs_yx_fsv16" outputPrecisions="f16" primitiveType="jit:ir__f16" runtimePrecision="f16" />
			<input>
				<port id="0" precision="FP16">
					<dim>1</dim>
					<dim>512</dim>
					<dim>64</dim>
					<dim>64</dim>
				</port>
			</input>
			<output>
				<port id="1" precision="FP16">
					<dim>1</dim>
					<dim>256</dim>
					<dim>64</dim>
					<dim>64</dim>
				</port>
			</output>
		</layer>
		<layer id="28" name="__module.backbone.0.body.layer3.0.bn2/aten::mul/Multiply_1" type="Convolution">
			<data execOrder="403" execTimeMcs="not_executed" originalLayersNames="__module.backbone.0.body.layer3.0.bn2/aten::mul/Multiply_1,__module.backbone.0.body.layer3.0.bn2/aten::add/Add,__module.backbone.0.body.layer3.0.relu/aten::relu_/Relu_1" outputLayouts="b_fs_yx_fsv16" outputPrecisions="f16" primitiveType="jit:ir__f16" runtimePrecision="f16" />
			<input>
				<port id="0" precision="FP16">
					<dim>1</dim>
					<dim>256</dim>
					<dim>64</dim>
					<dim>64</dim>
				</port>
			</input>
			<output>
				<port id="1" precision="FP16">
					<dim>1</dim>
					<dim>256</dim>
					<dim>32</dim>
					<dim>32</dim>
				</port>
			</output>
		</layer>
		<layer id="29" name="__module.backbone.0.body.layer3.0.downsample.1/aten::mul/Multiply_1" type="Convolution">
			<data execOrder="401" execTimeMcs="not_executed" originalLayersNames="__module.backbone.0.body.layer3.0.downsample.1/aten::mul/Multiply_1,__module.backbone.0.body.layer3.0.downsample.1/aten::add/Add" outputLayouts="b_fs_yx_fsv16" outputPrecisions="f16" primitiveType="jit:ir__f16" runtimePrecision="f16" />
			<input>
				<port id="0" precision="FP16">
					<dim>1</dim>
					<dim>512</dim>
					<dim>64</dim>
					<dim>64</dim>
				</port>
			</input>
			<output>
				<port id="1" precision="FP16">
					<dim>1</dim>
					<dim>1024</dim>
					<dim>32</dim>
					<dim>32</dim>
				</port>
			</output>
		</layer>
		<layer id="30" name="__module.backbone.0.body.layer3.0.bn3/aten::mul/Multiply_1" type="Convolution">
			<data execOrder="404" execTimeMcs="not_executed" originalLayersNames="__module.backbone.0.body.layer3.0.bn3/aten::mul/Multiply_1,__module.backbone.0.body.layer3.0.bn3/aten::add/Add,__module.backbone.0.body.layer3.0/aten::add_/Add,__module.backbone.0.body.layer3.0.relu/aten::relu_/Relu_2" outputLayouts="b_fs_yx_fsv16" outputPrecisions="f16" primitiveType="jit:ir__f16" runtimePrecision="f16" />
			<input>
				<port id="0" precision="FP16">
					<dim>1</dim>
					<dim>256</dim>
					<dim>32</dim>
					<dim>32</dim>
				</port>
				<port id="1" precision="FP16">
					<dim>1</dim>
					<dim>1024</dim>
					<dim>32</dim>
					<dim>32</dim>
				</port>
			</input>
			<output>
				<port id="2" precision="FP16">
					<dim>1</dim>
					<dim>1024</dim>
					<dim>32</dim>
					<dim>32</dim>
				</port>
				<port id="3" precision="FP16">
					<dim>1</dim>
					<dim>1024</dim>
					<dim>32</dim>
					<dim>32</dim>
				</port>
			</output>
		</layer>
		<layer id="31" name="__module.backbone.0.body.layer3.1.bn1/aten::mul/Multiply_1" type="Convolution">
			<data execOrder="405" execTimeMcs="not_executed" originalLayersNames="__module.backbone.0.body.layer3.1.bn1/aten::mul/Multiply_1,__module.backbone.0.body.layer3.1.bn1/aten::add/Add,__module.backbone.0.body.layer3.1.relu/aten::relu_/Relu" outputLayouts="b_fs_yx_fsv16" outputPrecisions="f16" primitiveType="jit:ir__f16" runtimePrecision="f16" />
			<input>
				<port id="0" precision="FP16">
					<dim>1</dim>
					<dim>1024</dim>
					<dim>32</dim>
					<dim>32</dim>
				</port>
			</input>
			<output>
				<port id="1" precision="FP16">
					<dim>1</dim>
					<dim>256</dim>
					<dim>32</dim>
					<dim>32</dim>
				</port>
			</output>
		</layer>
		<layer id="32" name="__module.backbone.0.body.layer3.1.bn2/aten::mul/Multiply_1" type="Convolution">
			<data execOrder="406" execTimeMcs="not_executed" originalLayersNames="__module.backbone.0.body.layer3.1.bn2/aten::mul/Multiply_1,__module.backbone.0.body.layer3.1.bn2/aten::add/Add,__module.backbone.0.body.layer3.1.relu/aten::relu_/Relu_1" outputLayouts="b_fs_yx_fsv16" outputPrecisions="f16" primitiveType="jit:ir__f16" runtimePrecision="f16" />
			<input>
				<port id="0" precision="FP16">
					<dim>1</dim>
					<dim>256</dim>
					<dim>32</dim>
					<dim>32</dim>
				</port>
			</input>
			<output>
				<port id="1" precision="FP16">
					<dim>1</dim>
					<dim>256</dim>
					<dim>32</dim>
					<dim>32</dim>
				</port>
			</output>
		</layer>
		<layer id="33" name="__module.backbone.0.body.layer3.1.bn3/aten::mul/Multiply_1" type="Convolution">
			<data execOrder="407" execTimeMcs="not_executed" originalLayersNames="__module.backbone.0.body.layer3.1.bn3/aten::mul/Multiply_1,__module.backbone.0.body.layer3.1.bn3/aten::add/Add,__module.backbone.0.body.layer3.1/aten::add_/Add,__module.backbone.0.body.layer3.1.relu/aten::relu_/Relu_2" outputLayouts="b_fs_yx_fsv16" outputPrecisions="f16" primitiveType="jit:ir__f16" runtimePrecision="f16" />
			<input>
				<port id="0" precision="FP16">
					<dim>1</dim>
					<dim>256</dim>
					<dim>32</dim>
					<dim>32</dim>
				</port>
				<port id="1" precision="FP16">
					<dim>1</dim>
					<dim>1024</dim>
					<dim>32</dim>
					<dim>32</dim>
				</port>
			</input>
			<output>
				<port id="2" precision="FP16">
					<dim>1</dim>
					<dim>1024</dim>
					<dim>32</dim>
					<dim>32</dim>
				</port>
				<port id="3" precision="FP16">
					<dim>1</dim>
					<dim>1024</dim>
					<dim>32</dim>
					<dim>32</dim>
				</port>
			</output>
		</layer>
		<layer id="34" name="__module.backbone.0.body.layer3.2.bn1/aten::mul/Multiply_1" type="Convolution">
			<data execOrder="408" execTimeMcs="not_executed" originalLayersNames="__module.backbone.0.body.layer3.2.bn1/aten::mul/Multiply_1,__module.backbone.0.body.layer3.2.bn1/aten::add/Add,__module.backbone.0.body.layer3.2.relu/aten::relu_/Relu" outputLayouts="b_fs_yx_fsv16" outputPrecisions="f16" primitiveType="jit:ir__f16" runtimePrecision="f16" />
			<input>
				<port id="0" precision="FP16">
					<dim>1</dim>
					<dim>1024</dim>
					<dim>32</dim>
					<dim>32</dim>
				</port>
			</input>
			<output>
				<port id="1" precision="FP16">
					<dim>1</dim>
					<dim>256</dim>
					<dim>32</dim>
					<dim>32</dim>
				</port>
			</output>
		</layer>
		<layer id="35" name="__module.backbone.0.body.layer3.2.bn2/aten::mul/Multiply_1" type="Convolution">
			<data execOrder="409" execTimeMcs="not_executed" originalLayersNames="__module.backbone.0.body.layer3.2.bn2/aten::mul/Multiply_1,__module.backbone.0.body.layer3.2.bn2/aten::add/Add,__module.backbone.0.body.layer3.2.relu/aten::relu_/Relu_1" outputLayouts="b_fs_yx_fsv16" outputPrecisions="f16" primitiveType="jit:ir__f16" runtimePrecision="f16" />
			<input>
				<port id="0" precision="FP16">
					<dim>1</dim>
					<dim>256</dim>
					<dim>32</dim>
					<dim>32</dim>
				</port>
			</input>
			<output>
				<port id="1" precision="FP16">
					<dim>1</dim>
					<dim>256</dim>
					<dim>32</dim>
					<dim>32</dim>
				</port>
			</output>
		</layer>
		<layer id="36" name="__module.backbone.0.body.layer3.2.bn3/aten::mul/Multiply_1" type="Convolution">
			<data execOrder="410" execTimeMcs="not_executed" originalLayersNames="__module.backbone.0.body.layer3.2.bn3/aten::mul/Multiply_1,__module.backbone.0.body.layer3.2.bn3/aten::add/Add,__module.backbone.0.body.layer3.2/aten::add_/Add,__module.backbone.0.body.layer3.2.relu/aten::relu_/Relu_2" outputLayouts="b_fs_yx_fsv16" outputPrecisions="f16" primitiveType="jit:ir__f16" runtimePrecision="f16" />
			<input>
				<port id="0" precision="FP16">
					<dim>1</dim>
					<dim>256</dim>
					<dim>32</dim>
					<dim>32</dim>
				</port>
				<port id="1" precision="FP16">
					<dim>1</dim>
					<dim>1024</dim>
					<dim>32</dim>
					<dim>32</dim>
				</port>
			</input>
			<output>
				<port id="2" precision="FP16">
					<dim>1</dim>
					<dim>1024</dim>
					<dim>32</dim>
					<dim>32</dim>
				</port>
				<port id="3" precision="FP16">
					<dim>1</dim>
					<dim>1024</dim>
					<dim>32</dim>
					<dim>32</dim>
				</port>
			</output>
		</layer>
		<layer id="37" name="__module.backbone.0.body.layer3.3.bn1/aten::mul/Multiply_1" type="Convolution">
			<data execOrder="411" execTimeMcs="not_executed" originalLayersNames="__module.backbone.0.body.layer3.3.bn1/aten::mul/Multiply_1,__module.backbone.0.body.layer3.3.bn1/aten::add/Add,__module.backbone.0.body.layer3.3.relu/aten::relu_/Relu" outputLayouts="b_fs_yx_fsv16" outputPrecisions="f16" primitiveType="jit:ir__f16" runtimePrecision="f16" />
			<input>
				<port id="0" precision="FP16">
					<dim>1</dim>
					<dim>1024</dim>
					<dim>32</dim>
					<dim>32</dim>
				</port>
			</input>
			<output>
				<port id="1" precision="FP16">
					<dim>1</dim>
					<dim>256</dim>
					<dim>32</dim>
					<dim>32</dim>
				</port>
			</output>
		</layer>
		<layer id="38" name="__module.backbone.0.body.layer3.3.bn2/aten::mul/Multiply_1" type="Convolution">
			<data execOrder="412" execTimeMcs="not_executed" originalLayersNames="__module.backbone.0.body.layer3.3.bn2/aten::mul/Multiply_1,__module.backbone.0.body.layer3.3.bn2/aten::add/Add,__module.backbone.0.body.layer3.3.relu/aten::relu_/Relu_1" outputLayouts="b_fs_yx_fsv16" outputPrecisions="f16" primitiveType="jit:ir__f16" runtimePrecision="f16" />
			<input>
				<port id="0" precision="FP16">
					<dim>1</dim>
					<dim>256</dim>
					<dim>32</dim>
					<dim>32</dim>
				</port>
			</input>
			<output>
				<port id="1" precision="FP16">
					<dim>1</dim>
					<dim>256</dim>
					<dim>32</dim>
					<dim>32</dim>
				</port>
			</output>
		</layer>
		<layer id="39" name="__module.backbone.0.body.layer3.3.bn3/aten::mul/Multiply_1" type="Convolution">
			<data execOrder="413" execTimeMcs="not_executed" originalLayersNames="__module.backbone.0.body.layer3.3.bn3/aten::mul/Multiply_1,__module.backbone.0.body.layer3.3.bn3/aten::add/Add,__module.backbone.0.body.layer3.3/aten::add_/Add,__module.backbone.0.body.layer3.3.relu/aten::relu_/Relu_2" outputLayouts="b_fs_yx_fsv16" outputPrecisions="f16" primitiveType="jit:ir__f16" runtimePrecision="f16" />
			<input>
				<port id="0" precision="FP16">
					<dim>1</dim>
					<dim>256</dim>
					<dim>32</dim>
					<dim>32</dim>
				</port>
				<port id="1" precision="FP16">
					<dim>1</dim>
					<dim>1024</dim>
					<dim>32</dim>
					<dim>32</dim>
				</port>
			</input>
			<output>
				<port id="2" precision="FP16">
					<dim>1</dim>
					<dim>1024</dim>
					<dim>32</dim>
					<dim>32</dim>
				</port>
				<port id="3" precision="FP16">
					<dim>1</dim>
					<dim>1024</dim>
					<dim>32</dim>
					<dim>32</dim>
				</port>
			</output>
		</layer>
		<layer id="40" name="__module.backbone.0.body.layer3.4.bn1/aten::mul/Multiply_1" type="Convolution">
			<data execOrder="414" execTimeMcs="not_executed" originalLayersNames="__module.backbone.0.body.layer3.4.bn1/aten::mul/Multiply_1,__module.backbone.0.body.layer3.4.bn1/aten::add/Add,__module.backbone.0.body.layer3.4.relu/aten::relu_/Relu" outputLayouts="b_fs_yx_fsv16" outputPrecisions="f16" primitiveType="jit:ir__f16" runtimePrecision="f16" />
			<input>
				<port id="0" precision="FP16">
					<dim>1</dim>
					<dim>1024</dim>
					<dim>32</dim>
					<dim>32</dim>
				</port>
			</input>
			<output>
				<port id="1" precision="FP16">
					<dim>1</dim>
					<dim>256</dim>
					<dim>32</dim>
					<dim>32</dim>
				</port>
			</output>
		</layer>
		<layer id="41" name="__module.backbone.0.body.layer3.4.bn2/aten::mul/Multiply_1" type="Convolution">
			<data execOrder="415" execTimeMcs="not_executed" originalLayersNames="__module.backbone.0.body.layer3.4.bn2/aten::mul/Multiply_1,__module.backbone.0.body.layer3.4.bn2/aten::add/Add,__module.backbone.0.body.layer3.4.relu/aten::relu_/Relu_1" outputLayouts="b_fs_yx_fsv16" outputPrecisions="f16" primitiveType="jit:ir__f16" runtimePrecision="f16" />
			<input>
				<port id="0" precision="FP16">
					<dim>1</dim>
					<dim>256</dim>
					<dim>32</dim>
					<dim>32</dim>
				</port>
			</input>
			<output>
				<port id="1" precision="FP16">
					<dim>1</dim>
					<dim>256</dim>
					<dim>32</dim>
					<dim>32</dim>
				</port>
			</output>
		</layer>
		<layer id="42" name="__module.backbone.0.body.layer3.4.bn3/aten::mul/Multiply_1" type="Convolution">
			<data execOrder="416" execTimeMcs="not_executed" originalLayersNames="__module.backbone.0.body.layer3.4.bn3/aten::mul/Multiply_1,__module.backbone.0.body.layer3.4.bn3/aten::add/Add,__module.backbone.0.body.layer3.4/aten::add_/Add,__module.backbone.0.body.layer3.4.relu/aten::relu_/Relu_2" outputLayouts="b_fs_yx_fsv16" outputPrecisions="f16" primitiveType="jit:ir__f16" runtimePrecision="f16" />
			<input>
				<port id="0" precision="FP16">
					<dim>1</dim>
					<dim>256</dim>
					<dim>32</dim>
					<dim>32</dim>
				</port>
				<port id="1" precision="FP16">
					<dim>1</dim>
					<dim>1024</dim>
					<dim>32</dim>
					<dim>32</dim>
				</port>
			</input>
			<output>
				<port id="2" precision="FP16">
					<dim>1</dim>
					<dim>1024</dim>
					<dim>32</dim>
					<dim>32</dim>
				</port>
				<port id="3" precision="FP16">
					<dim>1</dim>
					<dim>1024</dim>
					<dim>32</dim>
					<dim>32</dim>
				</port>
			</output>
		</layer>
		<layer id="43" name="__module.backbone.0.body.layer3.5.bn1/aten::mul/Multiply_1" type="Convolution">
			<data execOrder="417" execTimeMcs="not_executed" originalLayersNames="__module.backbone.0.body.layer3.5.bn1/aten::mul/Multiply_1,__module.backbone.0.body.layer3.5.bn1/aten::add/Add,__module.backbone.0.body.layer3.5.relu/aten::relu_/Relu" outputLayouts="b_fs_yx_fsv16" outputPrecisions="f16" primitiveType="jit:ir__f16" runtimePrecision="f16" />
			<input>
				<port id="0" precision="FP16">
					<dim>1</dim>
					<dim>1024</dim>
					<dim>32</dim>
					<dim>32</dim>
				</port>
			</input>
			<output>
				<port id="1" precision="FP16">
					<dim>1</dim>
					<dim>256</dim>
					<dim>32</dim>
					<dim>32</dim>
				</port>
			</output>
		</layer>
		<layer id="44" name="__module.backbone.0.body.layer3.5.bn2/aten::mul/Multiply_1" type="Convolution">
			<data execOrder="418" execTimeMcs="not_executed" originalLayersNames="__module.backbone.0.body.layer3.5.bn2/aten::mul/Multiply_1,__module.backbone.0.body.layer3.5.bn2/aten::add/Add,__module.backbone.0.body.layer3.5.relu/aten::relu_/Relu_1" outputLayouts="b_fs_yx_fsv16" outputPrecisions="f16" primitiveType="jit:ir__f16" runtimePrecision="f16" />
			<input>
				<port id="0" precision="FP16">
					<dim>1</dim>
					<dim>256</dim>
					<dim>32</dim>
					<dim>32</dim>
				</port>
			</input>
			<output>
				<port id="1" precision="FP16">
					<dim>1</dim>
					<dim>256</dim>
					<dim>32</dim>
					<dim>32</dim>
				</port>
			</output>
		</layer>
		<layer id="45" name="__module.backbone.0.body.layer3.5.bn3/aten::mul/Multiply_1" type="Convolution">
			<data execOrder="419" execTimeMcs="not_executed" originalLayersNames="__module.backbone.0.body.layer3.5.bn3/aten::mul/Multiply_1,__module.backbone.0.body.layer3.5.bn3/aten::add/Add,__module.backbone.0.body.layer3.5/aten::add_/Add,__module.backbone.0.body.layer3.5.relu/aten::relu_/Relu_2" outputLayouts="b_fs_yx_fsv16" outputPrecisions="f16" primitiveType="jit:ir__f16" runtimePrecision="f16" />
			<input>
				<port id="0" precision="FP16">
					<dim>1</dim>
					<dim>256</dim>
					<dim>32</dim>
					<dim>32</dim>
				</port>
				<port id="1" precision="FP16">
					<dim>1</dim>
					<dim>1024</dim>
					<dim>32</dim>
					<dim>32</dim>
				</port>
			</input>
			<output>
				<port id="2" precision="FP16">
					<dim>1</dim>
					<dim>1024</dim>
					<dim>32</dim>
					<dim>32</dim>
				</port>
				<port id="3" precision="FP16">
					<dim>1</dim>
					<dim>1024</dim>
					<dim>32</dim>
					<dim>32</dim>
				</port>
			</output>
		</layer>
		<layer id="46" name="__module.backbone.0.body.layer4.0.bn1/aten::mul/Multiply_1" type="Convolution">
			<data execOrder="421" execTimeMcs="not_executed" originalLayersNames="__module.backbone.0.body.layer4.0.bn1/aten::mul/Multiply_1,__module.backbone.0.body.layer4.0.bn1/aten::add/Add,__module.backbone.0.body.layer4.0.relu/aten::relu_/Relu" outputLayouts="b_fs_yx_fsv16" outputPrecisions="f16" primitiveType="jit:ir__f16" runtimePrecision="f16" />
			<input>
				<port id="0" precision="FP16">
					<dim>1</dim>
					<dim>1024</dim>
					<dim>32</dim>
					<dim>32</dim>
				</port>
			</input>
			<output>
				<port id="1" precision="FP16">
					<dim>1</dim>
					<dim>512</dim>
					<dim>32</dim>
					<dim>32</dim>
				</port>
			</output>
		</layer>
		<layer id="47" name="__module.backbone.0.body.layer4.0.bn2/aten::mul/Multiply_1" type="Convolution">
			<data execOrder="422" execTimeMcs="not_executed" originalLayersNames="__module.backbone.0.body.layer4.0.bn2/aten::mul/Multiply_1,__module.backbone.0.body.layer4.0.bn2/aten::add/Add,__module.backbone.0.body.layer4.0.relu/aten::relu_/Relu_1" outputLayouts="b_fs_yx_fsv16" outputPrecisions="f16" primitiveType="jit:ir__f16" runtimePrecision="f16" />
			<input>
				<port id="0" precision="FP16">
					<dim>1</dim>
					<dim>512</dim>
					<dim>32</dim>
					<dim>32</dim>
				</port>
			</input>
			<output>
				<port id="1" precision="FP16">
					<dim>1</dim>
					<dim>512</dim>
					<dim>16</dim>
					<dim>16</dim>
				</port>
			</output>
		</layer>
		<layer id="48" name="__module.backbone.0.body.layer4.0.downsample.1/aten::mul/Multiply_1" type="Convolution">
			<data execOrder="420" execTimeMcs="not_executed" originalLayersNames="__module.backbone.0.body.layer4.0.downsample.1/aten::mul/Multiply_1,__module.backbone.0.body.layer4.0.downsample.1/aten::add/Add" outputLayouts="b_fs_yx_fsv16" outputPrecisions="f16" primitiveType="jit:ir__f16" runtimePrecision="f16" />
			<input>
				<port id="0" precision="FP16">
					<dim>1</dim>
					<dim>1024</dim>
					<dim>32</dim>
					<dim>32</dim>
				</port>
			</input>
			<output>
				<port id="1" precision="FP16">
					<dim>1</dim>
					<dim>2048</dim>
					<dim>16</dim>
					<dim>16</dim>
				</port>
			</output>
		</layer>
		<layer id="49" name="__module.backbone.0.body.layer4.0.bn3/aten::mul/Multiply_1" type="Convolution">
			<data execOrder="423" execTimeMcs="not_executed" originalLayersNames="__module.backbone.0.body.layer4.0.bn3/aten::mul/Multiply_1,__module.backbone.0.body.layer4.0.bn3/aten::add/Add,__module.backbone.0.body.layer4.0/aten::add_/Add,__module.backbone.0.body.layer4.0.relu/aten::relu_/Relu_2" outputLayouts="b_fs_yx_fsv16" outputPrecisions="f16" primitiveType="jit:ir__f16" runtimePrecision="f16" />
			<input>
				<port id="0" precision="FP16">
					<dim>1</dim>
					<dim>512</dim>
					<dim>16</dim>
					<dim>16</dim>
				</port>
				<port id="1" precision="FP16">
					<dim>1</dim>
					<dim>2048</dim>
					<dim>16</dim>
					<dim>16</dim>
				</port>
			</input>
			<output>
				<port id="2" precision="FP16">
					<dim>1</dim>
					<dim>2048</dim>
					<dim>16</dim>
					<dim>16</dim>
				</port>
				<port id="3" precision="FP16">
					<dim>1</dim>
					<dim>2048</dim>
					<dim>16</dim>
					<dim>16</dim>
				</port>
			</output>
		</layer>
		<layer id="50" name="__module.backbone.0.body.layer4.1.bn1/aten::mul/Multiply_1" type="Convolution">
			<data execOrder="424" execTimeMcs="not_executed" originalLayersNames="__module.backbone.0.body.layer4.1.bn1/aten::mul/Multiply_1,__module.backbone.0.body.layer4.1.bn1/aten::add/Add,__module.backbone.0.body.layer4.1.relu/aten::relu_/Relu" outputLayouts="b_fs_yx_fsv16" outputPrecisions="f16" primitiveType="jit:ir__f16" runtimePrecision="f16" />
			<input>
				<port id="0" precision="FP16">
					<dim>1</dim>
					<dim>2048</dim>
					<dim>16</dim>
					<dim>16</dim>
				</port>
			</input>
			<output>
				<port id="1" precision="FP16">
					<dim>1</dim>
					<dim>512</dim>
					<dim>16</dim>
					<dim>16</dim>
				</port>
			</output>
		</layer>
		<layer id="51" name="__module.backbone.0.body.layer4.1.bn2/aten::mul/Multiply_1" type="Convolution">
			<data execOrder="425" execTimeMcs="not_executed" originalLayersNames="__module.backbone.0.body.layer4.1.bn2/aten::mul/Multiply_1,__module.backbone.0.body.layer4.1.bn2/aten::add/Add,__module.backbone.0.body.layer4.1.relu/aten::relu_/Relu_1" outputLayouts="b_fs_yx_fsv16" outputPrecisions="f16" primitiveType="jit:ir__f16" runtimePrecision="f16" />
			<input>
				<port id="0" precision="FP16">
					<dim>1</dim>
					<dim>512</dim>
					<dim>16</dim>
					<dim>16</dim>
				</port>
			</input>
			<output>
				<port id="1" precision="FP16">
					<dim>1</dim>
					<dim>512</dim>
					<dim>16</dim>
					<dim>16</dim>
				</port>
			</output>
		</layer>
		<layer id="52" name="__module.backbone.0.body.layer4.1.bn3/aten::mul/Multiply_1" type="Convolution">
			<data execOrder="426" execTimeMcs="not_executed" originalLayersNames="__module.backbone.0.body.layer4.1.bn3/aten::mul/Multiply_1,__module.backbone.0.body.layer4.1.bn3/aten::add/Add,__module.backbone.0.body.layer4.1/aten::add_/Add,__module.backbone.0.body.layer4.1.relu/aten::relu_/Relu_2" outputLayouts="b_fs_yx_fsv16" outputPrecisions="f16" primitiveType="jit:ir__f16" runtimePrecision="f16" />
			<input>
				<port id="0" precision="FP16">
					<dim>1</dim>
					<dim>512</dim>
					<dim>16</dim>
					<dim>16</dim>
				</port>
				<port id="1" precision="FP16">
					<dim>1</dim>
					<dim>2048</dim>
					<dim>16</dim>
					<dim>16</dim>
				</port>
			</input>
			<output>
				<port id="2" precision="FP16">
					<dim>1</dim>
					<dim>2048</dim>
					<dim>16</dim>
					<dim>16</dim>
				</port>
				<port id="3" precision="FP16">
					<dim>1</dim>
					<dim>2048</dim>
					<dim>16</dim>
					<dim>16</dim>
				</port>
			</output>
		</layer>
		<layer id="53" name="__module.backbone.0.body.layer4.2.bn1/aten::mul/Multiply_1" type="Convolution">
			<data execOrder="427" execTimeMcs="not_executed" originalLayersNames="__module.backbone.0.body.layer4.2.bn1/aten::mul/Multiply_1,__module.backbone.0.body.layer4.2.bn1/aten::add/Add,__module.backbone.0.body.layer4.2.relu/aten::relu_/Relu" outputLayouts="b_fs_yx_fsv16" outputPrecisions="f16" primitiveType="jit:ir__f16" runtimePrecision="f16" />
			<input>
				<port id="0" precision="FP16">
					<dim>1</dim>
					<dim>2048</dim>
					<dim>16</dim>
					<dim>16</dim>
				</port>
			</input>
			<output>
				<port id="1" precision="FP16">
					<dim>1</dim>
					<dim>512</dim>
					<dim>16</dim>
					<dim>16</dim>
				</port>
			</output>
		</layer>
		<layer id="54" name="__module.backbone.0.body.layer4.2.bn2/aten::mul/Multiply_1" type="Convolution">
			<data execOrder="428" execTimeMcs="not_executed" originalLayersNames="__module.backbone.0.body.layer4.2.bn2/aten::mul/Multiply_1,__module.backbone.0.body.layer4.2.bn2/aten::add/Add,__module.backbone.0.body.layer4.2.relu/aten::relu_/Relu_1" outputLayouts="b_fs_yx_fsv16" outputPrecisions="f16" primitiveType="jit:ir__f16" runtimePrecision="f16" />
			<input>
				<port id="0" precision="FP16">
					<dim>1</dim>
					<dim>512</dim>
					<dim>16</dim>
					<dim>16</dim>
				</port>
			</input>
			<output>
				<port id="1" precision="FP16">
					<dim>1</dim>
					<dim>512</dim>
					<dim>16</dim>
					<dim>16</dim>
				</port>
			</output>
		</layer>
		<layer id="55" name="__module.backbone.0.body.layer4.2.bn3/aten::mul/Multiply_1" type="Convolution">
			<data execOrder="429" execTimeMcs="not_executed" originalLayersNames="__module.backbone.0.body.layer4.2.bn3/aten::mul/Multiply_1,__module.backbone.0.body.layer4.2.bn3/aten::add/Add,__module.backbone.0.body.layer4.2/aten::add_/Add,__module.backbone.0.body.layer4.2.relu/aten::relu_/Relu_2" outputLayouts="b_fs_yx_fsv16" outputPrecisions="f16" primitiveType="jit:ir__f16" runtimePrecision="f16" />
			<input>
				<port id="0" precision="FP16">
					<dim>1</dim>
					<dim>512</dim>
					<dim>16</dim>
					<dim>16</dim>
				</port>
				<port id="1" precision="FP16">
					<dim>1</dim>
					<dim>2048</dim>
					<dim>16</dim>
					<dim>16</dim>
				</port>
			</input>
			<output>
				<port id="2" precision="FP16">
					<dim>1</dim>
					<dim>2048</dim>
					<dim>16</dim>
					<dim>16</dim>
				</port>
			</output>
		</layer>
		<layer id="56" name="__module.input_proj/aten::_convolution/Convolution" type="Convolution">
			<data execOrder="430" execTimeMcs="not_executed" originalLayersNames="__module.input_proj/aten::_convolution/Convolution,__module.input_proj/aten::_convolution/Add" outputLayouts="b_fs_yx_fsv16" outputPrecisions="f16" primitiveType="jit:ir__f16" runtimePrecision="f16" />
			<input>
				<port id="0" precision="FP16">
					<dim>1</dim>
					<dim>2048</dim>
					<dim>16</dim>
					<dim>16</dim>
				</port>
			</input>
			<output>
				<port id="1" precision="FP16">
					<dim>1</dim>
					<dim>256</dim>
					<dim>16</dim>
					<dim>16</dim>
				</port>
			</output>
		</layer>
		<layer id="57" name="__module.transformer/aten::flatten/Reshape_reorder" type="Reorder">
			<data execOrder="431" execTimeMcs="not_executed" originalLayersNames="__module.transformer/aten::flatten/Reshape" outputLayouts="bfyx" outputPrecisions="f16" primitiveType="jit:ir__f16" runtimePrecision="f16" />
			<input>
				<port id="0" precision="FP16">
					<dim>1</dim>
					<dim>256</dim>
					<dim>16</dim>
					<dim>16</dim>
				</port>
			</input>
			<output>
				<port id="1" precision="FP16">
					<dim>1</dim>
					<dim>256</dim>
					<dim>16</dim>
					<dim>16</dim>
				</port>
			</output>
		</layer>
		<layer id="58" name="__module.transformer/aten::flatten/Reshape" type="Reshape">
			<data execOrder="432" execTimeMcs="not_executed" originalLayersNames="__module.transformer/aten::flatten/Reshape" outputLayouts="bfyx" outputPrecisions="f16" primitiveType="undef" runtimePrecision="f16" />
			<input>
				<port id="0" precision="FP16">
					<dim>1</dim>
					<dim>256</dim>
					<dim>16</dim>
					<dim>16</dim>
				</port>
			</input>
			<output>
				<port id="1" precision="FP16">
					<dim>1</dim>
					<dim>256</dim>
					<dim>256</dim>
					<dim>1</dim>
				</port>
			</output>
		</layer>
		<layer id="59" name="__module.transformer/aten::permute/Transpose" type="Permute">
			<data execOrder="433" execTimeMcs="not_executed" originalLayersNames="__module.transformer/aten::permute/Transpose" outputLayouts="bfyx" outputPrecisions="f16" primitiveType="permute_ref__f16" runtimePrecision="f16" />
			<input>
				<port id="0" precision="FP16">
					<dim>1</dim>
					<dim>256</dim>
					<dim>256</dim>
					<dim>1</dim>
				</port>
			</input>
			<output>
				<port id="1" precision="FP16">
					<dim>256</dim>
					<dim>1</dim>
					<dim>256</dim>
					<dim>1</dim>
				</port>
				<port id="2" precision="FP16">
					<dim>256</dim>
					<dim>1</dim>
					<dim>256</dim>
					<dim>1</dim>
				</port>
				<port id="3" precision="FP16">
					<dim>256</dim>
					<dim>1</dim>
					<dim>256</dim>
					<dim>1</dim>
				</port>
			</output>
		</layer>
		<layer id="60" name="__module.transformer.encoder.layers.0/aten::add/Add" type="Eltwise">
			<data execOrder="435" execTimeMcs="not_executed" originalLayersNames="__module.transformer.encoder.layers.0/aten::add/Add" outputLayouts="bfyx" outputPrecisions="f16" primitiveType="eltwise_simple_vload8__f16" runtimePrecision="f16" />
			<input>
				<port id="0" precision="FP16">
					<dim>256</dim>
					<dim>1</dim>
					<dim>256</dim>
					<dim>1</dim>
				</port>
			</input>
			<output>
				<port id="1" precision="FP16">
					<dim>256</dim>
					<dim>1</dim>
					<dim>256</dim>
					<dim>1</dim>
				</port>
				<port id="2" precision="FP16">
					<dim>256</dim>
					<dim>1</dim>
					<dim>256</dim>
					<dim>1</dim>
				</port>
			</output>
		</layer>
		<layer id="61" name="__module.transformer.encoder.layers.0.self_attn/aten::linear/MatMul" type="FullyConnected">
			<data execOrder="437" execTimeMcs="not_executed" originalLayersNames="__module.transformer.encoder.layers.0.self_attn/aten::linear/MatMul,__module.transformer.encoder.layers.0.self_attn/aten::linear/Add" outputLayouts="bfyx" outputPrecisions="f16" primitiveType="jit:gemm:any__f16" runtimePrecision="f16" />
			<input>
				<port id="0" precision="FP16">
					<dim>256</dim>
					<dim>1</dim>
					<dim>256</dim>
					<dim>1</dim>
				</port>
			</input>
			<output>
				<port id="1" precision="FP16">
					<dim>256</dim>
					<dim>1</dim>
					<dim>256</dim>
					<dim>1</dim>
				</port>
			</output>
		</layer>
		<layer id="62" name="__module.transformer.encoder.layers.0.self_attn/aten::view/Reshape" type="Reshape">
			<data execOrder="441" execTimeMcs="not_executed" originalLayersNames="__module.transformer.encoder.layers.0.self_attn/aten::view/Reshape" outputLayouts="bfyx" outputPrecisions="f16" primitiveType="undef" runtimePrecision="f16" />
			<input>
				<port id="0" precision="FP16">
					<dim>256</dim>
					<dim>1</dim>
					<dim>256</dim>
					<dim>1</dim>
				</port>
			</input>
			<output>
				<port id="1" precision="FP16">
					<dim>256</dim>
					<dim>8</dim>
					<dim>32</dim>
					<dim>1</dim>
				</port>
			</output>
		</layer>
		<layer id="63" name="__module.transformer.encoder.layers.0.self_attn/aten::transpose/Transpose" type="Permute">
			<data execOrder="443" execTimeMcs="not_executed" originalLayersNames="__module.transformer.encoder.layers.0.self_attn/aten::transpose/Transpose" outputLayouts="bfyx" outputPrecisions="f16" primitiveType="permute_ref__f16" runtimePrecision="f16" />
			<input>
				<port id="0" precision="FP16">
					<dim>256</dim>
					<dim>8</dim>
					<dim>32</dim>
					<dim>1</dim>
				</port>
			</input>
			<output>
				<port id="1" precision="FP16">
					<dim>8</dim>
					<dim>256</dim>
					<dim>32</dim>
					<dim>1</dim>
				</port>
			</output>
		</layer>
		<layer id="64" name="__module.transformer.encoder.layers.0.self_attn/aten::view/Reshape_1" type="Reshape">
			<data execOrder="446" execTimeMcs="not_executed" originalLayersNames="__module.transformer.encoder.layers.0.self_attn/aten::view/Reshape_1" outputLayouts="bfyx" outputPrecisions="f16" primitiveType="undef" runtimePrecision="f16" />
			<input>
				<port id="0" precision="FP16">
					<dim>8</dim>
					<dim>256</dim>
					<dim>32</dim>
					<dim>1</dim>
				</port>
			</input>
			<output>
				<port id="1" precision="FP16">
					<dim>1</dim>
					<dim>8</dim>
					<dim>256</dim>
					<dim>32</dim>
				</port>
			</output>
		</layer>
		<layer id="65" name="__module.transformer.encoder.layers.0.self_attn/aten::linear/MatMul_1" type="FullyConnected">
			<data execOrder="436" execTimeMcs="not_executed" originalLayersNames="__module.transformer.encoder.layers.0.self_attn/aten::linear/MatMul_1,__module.transformer.encoder.layers.0.self_attn/aten::linear/Add_1" outputLayouts="bfyx" outputPrecisions="f16" primitiveType="jit:gemm:any__f16" runtimePrecision="f16" />
			<input>
				<port id="0" precision="FP16">
					<dim>256</dim>
					<dim>1</dim>
					<dim>256</dim>
					<dim>1</dim>
				</port>
			</input>
			<output>
				<port id="1" precision="FP16">
					<dim>256</dim>
					<dim>1</dim>
					<dim>256</dim>
					<dim>1</dim>
				</port>
			</output>
		</layer>
		<layer id="66" name="__module.transformer.encoder.layers.0.self_attn/aten::view/Reshape_2" type="Reshape">
			<data execOrder="440" execTimeMcs="not_executed" originalLayersNames="__module.transformer.encoder.layers.0.self_attn/aten::view/Reshape_2" outputLayouts="bfyx" outputPrecisions="f16" primitiveType="undef" runtimePrecision="f16" />
			<input>
				<port id="0" precision="FP16">
					<dim>256</dim>
					<dim>1</dim>
					<dim>256</dim>
					<dim>1</dim>
				</port>
			</input>
			<output>
				<port id="1" precision="FP16">
					<dim>256</dim>
					<dim>8</dim>
					<dim>32</dim>
					<dim>1</dim>
				</port>
			</output>
		</layer>
		<layer id="67" name="__module.transformer.encoder.layers.0.self_attn/aten::transpose/Transpose_1" type="Permute">
			<data execOrder="442" execTimeMcs="not_executed" originalLayersNames="__module.transformer.encoder.layers.0.self_attn/aten::transpose/Transpose_1" outputLayouts="bfyx" outputPrecisions="f16" primitiveType="permute_ref__f16" runtimePrecision="f16" />
			<input>
				<port id="0" precision="FP16">
					<dim>256</dim>
					<dim>8</dim>
					<dim>32</dim>
					<dim>1</dim>
				</port>
			</input>
			<output>
				<port id="1" precision="FP16">
					<dim>8</dim>
					<dim>256</dim>
					<dim>32</dim>
					<dim>1</dim>
				</port>
			</output>
		</layer>
		<layer id="68" name="__module.transformer.encoder.layers.0.self_attn/aten::view/Reshape_3" type="Reshape">
			<data execOrder="445" execTimeMcs="not_executed" originalLayersNames="__module.transformer.encoder.layers.0.self_attn/aten::view/Reshape_3" outputLayouts="bfyx" outputPrecisions="f16" primitiveType="undef" runtimePrecision="f16" />
			<input>
				<port id="0" precision="FP16">
					<dim>8</dim>
					<dim>256</dim>
					<dim>32</dim>
					<dim>1</dim>
				</port>
			</input>
			<output>
				<port id="1" precision="FP16">
					<dim>1</dim>
					<dim>8</dim>
					<dim>256</dim>
					<dim>32</dim>
				</port>
			</output>
		</layer>
		<layer id="69" name="__module.transformer.encoder.layers.0.self_attn/aten::linear/MatMul_2" type="FullyConnected">
			<data execOrder="434" execTimeMcs="not_executed" originalLayersNames="__module.transformer.encoder.layers.0.self_attn/aten::linear/MatMul_2,__module.transformer.encoder.layers.0.self_attn/aten::linear/Add_2" outputLayouts="bfyx" outputPrecisions="f16" primitiveType="jit:gemm:any__f16" runtimePrecision="f16" />
			<input>
				<port id="0" precision="FP16">
					<dim>256</dim>
					<dim>1</dim>
					<dim>256</dim>
					<dim>1</dim>
				</port>
			</input>
			<output>
				<port id="1" precision="FP16">
					<dim>256</dim>
					<dim>1</dim>
					<dim>256</dim>
					<dim>1</dim>
				</port>
			</output>
		</layer>
		<layer id="70" name="__module.transformer.encoder.layers.0.self_attn/aten::view/Reshape_4" type="Reshape">
			<data execOrder="438" execTimeMcs="not_executed" originalLayersNames="__module.transformer.encoder.layers.0.self_attn/aten::view/Reshape_4" outputLayouts="bfyx" outputPrecisions="f16" primitiveType="undef" runtimePrecision="f16" />
			<input>
				<port id="0" precision="FP16">
					<dim>256</dim>
					<dim>1</dim>
					<dim>256</dim>
					<dim>1</dim>
				</port>
			</input>
			<output>
				<port id="1" precision="FP16">
					<dim>256</dim>
					<dim>8</dim>
					<dim>32</dim>
					<dim>1</dim>
				</port>
			</output>
		</layer>
		<layer id="71" name="__module.transformer.encoder.layers.0.self_attn/aten::transpose/Transpose_2" type="Permute">
			<data execOrder="439" execTimeMcs="not_executed" originalLayersNames="__module.transformer.encoder.layers.0.self_attn/aten::transpose/Transpose_2" outputLayouts="bfyx" outputPrecisions="f16" primitiveType="permute_ref__f16" runtimePrecision="f16" />
			<input>
				<port id="0" precision="FP16">
					<dim>256</dim>
					<dim>8</dim>
					<dim>32</dim>
					<dim>1</dim>
				</port>
			</input>
			<output>
				<port id="1" precision="FP16">
					<dim>8</dim>
					<dim>256</dim>
					<dim>32</dim>
					<dim>1</dim>
				</port>
			</output>
		</layer>
		<layer id="72" name="__module.transformer.encoder.layers.0.self_attn/aten::view/Reshape_5" type="Reshape">
			<data execOrder="444" execTimeMcs="not_executed" originalLayersNames="__module.transformer.encoder.layers.0.self_attn/aten::view/Reshape_5" outputLayouts="bfyx" outputPrecisions="f16" primitiveType="undef" runtimePrecision="f16" />
			<input>
				<port id="0" precision="FP16">
					<dim>8</dim>
					<dim>256</dim>
					<dim>32</dim>
					<dim>1</dim>
				</port>
			</input>
			<output>
				<port id="1" precision="FP16">
					<dim>1</dim>
					<dim>8</dim>
					<dim>256</dim>
					<dim>32</dim>
				</port>
			</output>
		</layer>
		<layer id="73" name="__module.transformer.encoder.layers.0.self_attn/aten::scaled_dot_product_attention/ScaledDotProductAttention" type="scaled_dot_product_attention">
			<data execOrder="447" execTimeMcs="not_executed" originalLayersNames="__module.transformer.encoder.layers.0.self_attn/aten::scaled_dot_product_attention/ScaledDotProductAttention" outputLayouts="bfyx" outputPrecisions="f16" primitiveType="sdpa_micro__f16" runtimePrecision="f16" />
			<input>
				<port id="0" precision="FP16">
					<dim>1</dim>
					<dim>8</dim>
					<dim>256</dim>
					<dim>32</dim>
				</port>
				<port id="1" precision="FP16">
					<dim>1</dim>
					<dim>8</dim>
					<dim>256</dim>
					<dim>32</dim>
				</port>
				<port id="2" precision="FP16">
					<dim>1</dim>
					<dim>8</dim>
					<dim>256</dim>
					<dim>32</dim>
				</port>
			</input>
			<output>
				<port id="3" precision="FP16">
					<dim>1</dim>
					<dim>8</dim>
					<dim>256</dim>
					<dim>32</dim>
				</port>
			</output>
		</layer>
		<layer id="74" name="__module.transformer.encoder.layers.0.self_attn/aten::permute/Transpose" type="Permute">
			<data execOrder="448" execTimeMcs="not_executed" originalLayersNames="__module.transformer.encoder.layers.0.self_attn/aten::permute/Transpose" outputLayouts="bfyx" outputPrecisions="f16" primitiveType="permute_ref__f16" runtimePrecision="f16" />
			<input>
				<port id="0" precision="FP16">
					<dim>1</dim>
					<dim>8</dim>
					<dim>256</dim>
					<dim>32</dim>
				</port>
			</input>
			<output>
				<port id="1" precision="FP16">
					<dim>256</dim>
					<dim>1</dim>
					<dim>8</dim>
					<dim>32</dim>
				</port>
			</output>
		</layer>
		<layer id="75" name="__module.transformer.encoder.layers.0.self_attn/aten::view/Reshape_8" type="Reshape">
			<data execOrder="449" execTimeMcs="not_executed" originalLayersNames="__module.transformer.encoder.layers.0.self_attn/aten::view/Reshape_8" outputLayouts="bfyx" outputPrecisions="f16" primitiveType="undef" runtimePrecision="f16" />
			<input>
				<port id="0" precision="FP16">
					<dim>256</dim>
					<dim>1</dim>
					<dim>8</dim>
					<dim>32</dim>
				</port>
			</input>
			<output>
				<port id="1" precision="FP16">
					<dim>256</dim>
					<dim>256</dim>
					<dim>1</dim>
					<dim>1</dim>
				</port>
			</output>
		</layer>
		<layer id="76" name="__module.transformer.encoder.layers.0.self_attn/aten::linear/MatMul_3" type="FullyConnected">
			<data execOrder="450" execTimeMcs="not_executed" originalLayersNames="__module.transformer.encoder.layers.0.self_attn/aten::linear/MatMul_3,__module.transformer.encoder.layers.0.self_attn/aten::linear/Add_3" outputLayouts="bfyx" outputPrecisions="f16" primitiveType="jit:gemm:any__f16" runtimePrecision="f16" />
			<input>
				<port id="0" precision="FP16">
					<dim>256</dim>
					<dim>256</dim>
					<dim>1</dim>
					<dim>1</dim>
				</port>
			</input>
			<output>
				<port id="1" precision="FP16">
					<dim>256</dim>
					<dim>256</dim>
					<dim>1</dim>
					<dim>1</dim>
				</port>
			</output>
		</layer>
		<layer id="77" name="__module.transformer.encoder.layers.0.self_attn/aten::view/Reshape_9" type="Reshape">
			<data execOrder="451" execTimeMcs="not_executed" originalLayersNames="__module.transformer.encoder.layers.0.self_attn/aten::view/Reshape_9" outputLayouts="bfyx" outputPrecisions="f16" primitiveType="undef" runtimePrecision="f16" />
			<input>
				<port id="0" precision="FP16">
					<dim>256</dim>
					<dim>256</dim>
					<dim>1</dim>
					<dim>1</dim>
				</port>
			</input>
			<output>
				<port id="1" precision="FP16">
					<dim>256</dim>
					<dim>1</dim>
					<dim>256</dim>
					<dim>1</dim>
				</port>
			</output>
		</layer>
		<layer id="78" name="__module.transformer.encoder.layers.0/aten::add/Add_1" type="Eltwise">
			<data execOrder="452" execTimeMcs="not_executed" originalLayersNames="__module.transformer.encoder.layers.0/aten::add/Add_1" outputLayouts="bfyx" outputPrecisions="f16" primitiveType="eltwise_simple_vload8__f16" runtimePrecision="f16" />
			<input>
				<port id="0" precision="FP16">
					<dim>256</dim>
					<dim>1</dim>
					<dim>256</dim>
					<dim>1</dim>
				</port>
				<port id="1" precision="FP16">
					<dim>256</dim>
					<dim>1</dim>
					<dim>256</dim>
					<dim>1</dim>
				</port>
			</input>
			<output>
				<port id="2" precision="FP16">
					<dim>256</dim>
					<dim>1</dim>
					<dim>256</dim>
					<dim>1</dim>
				</port>
			</output>
		</layer>
		<layer id="79" name="__module.transformer.encoder.layers.0.norm1/aten::layer_norm/MVN" type="MVN">
			<data execOrder="453" execTimeMcs="not_executed" originalLayersNames="__module.transformer.encoder.layers.0.norm1/aten::layer_norm/MVN,__module.transformer.encoder.layers.0.norm1/aten::layer_norm/Multiply_1,__module.transformer.encoder.layers.0.norm1/aten::layer_norm/Add" outputLayouts="bfyx" outputPrecisions="f16" primitiveType="mvn_gpu_bfyx_opt__f16" runtimePrecision="f16" />
			<input>
				<port id="0" precision="FP16">
					<dim>256</dim>
					<dim>1</dim>
					<dim>256</dim>
					<dim>1</dim>
				</port>
			</input>
			<output>
				<port id="1" precision="FP16">
					<dim>256</dim>
					<dim>1</dim>
					<dim>256</dim>
					<dim>1</dim>
				</port>
				<port id="2" precision="FP16">
					<dim>256</dim>
					<dim>1</dim>
					<dim>256</dim>
					<dim>1</dim>
				</port>
			</output>
		</layer>
		<layer id="80" name="__module.transformer.encoder.layers.0.linear1/aten::linear/MatMul" type="FullyConnected">
			<data execOrder="454" execTimeMcs="not_executed" originalLayersNames="__module.transformer.encoder.layers.0.linear1/aten::linear/MatMul,__module.transformer.encoder.layers.0.linear1/aten::linear/Add,__module.transformer.encoder.layers.0/aten::relu/Relu" outputLayouts="bfyx" outputPrecisions="f16" primitiveType="jit:gemm:any__f16" runtimePrecision="f16" />
			<input>
				<port id="0" precision="FP16">
					<dim>256</dim>
					<dim>1</dim>
					<dim>256</dim>
					<dim>1</dim>
				</port>
			</input>
			<output>
				<port id="1" precision="FP16">
					<dim>256</dim>
					<dim>1</dim>
					<dim>2048</dim>
					<dim>1</dim>
				</port>
			</output>
		</layer>
		<layer id="81" name="__module.transformer.encoder.layers.0.linear2/aten::linear/MatMul" type="FullyConnected">
			<data execOrder="455" execTimeMcs="not_executed" originalLayersNames="__module.transformer.encoder.layers.0.linear2/aten::linear/MatMul,__module.transformer.encoder.layers.0.linear2/aten::linear/Add,__module.transformer.encoder.layers.0/aten::add/Add_2" outputLayouts="bfyx" outputPrecisions="f16" primitiveType="jit:gemm:any__f16" runtimePrecision="f16" />
			<input>
				<port id="0" precision="FP16">
					<dim>256</dim>
					<dim>1</dim>
					<dim>2048</dim>
					<dim>1</dim>
				</port>
				<port id="1" precision="FP16">
					<dim>256</dim>
					<dim>1</dim>
					<dim>256</dim>
					<dim>1</dim>
				</port>
			</input>
			<output>
				<port id="2" precision="FP16">
					<dim>256</dim>
					<dim>1</dim>
					<dim>256</dim>
					<dim>1</dim>
				</port>
			</output>
		</layer>
		<layer id="82" name="__module.transformer.encoder.layers.0.norm2/aten::layer_norm/MVN" type="MVN">
			<data execOrder="456" execTimeMcs="not_executed" originalLayersNames="__module.transformer.encoder.layers.0.norm2/aten::layer_norm/MVN,__module.transformer.encoder.layers.0.norm2/aten::layer_norm/Multiply_1,__module.transformer.encoder.layers.0.norm2/aten::layer_norm/Add" outputLayouts="bfyx" outputPrecisions="f16" primitiveType="mvn_gpu_bfyx_opt__f16" runtimePrecision="f16" />
			<input>
				<port id="0" precision="FP16">
					<dim>256</dim>
					<dim>1</dim>
					<dim>256</dim>
					<dim>1</dim>
				</port>
			</input>
			<output>
				<port id="1" precision="FP16">
					<dim>256</dim>
					<dim>1</dim>
					<dim>256</dim>
					<dim>1</dim>
				</port>
				<port id="2" precision="FP16">
					<dim>256</dim>
					<dim>1</dim>
					<dim>256</dim>
					<dim>1</dim>
				</port>
				<port id="3" precision="FP16">
					<dim>256</dim>
					<dim>1</dim>
					<dim>256</dim>
					<dim>1</dim>
				</port>
			</output>
		</layer>
		<layer id="83" name="__module.transformer.encoder.layers.1/aten::add/Add" type="Eltwise">
			<data execOrder="458" execTimeMcs="not_executed" originalLayersNames="__module.transformer.encoder.layers.1/aten::add/Add" outputLayouts="bfyx" outputPrecisions="f16" primitiveType="eltwise_simple_vload8__f16" runtimePrecision="f16" />
			<input>
				<port id="0" precision="FP16">
					<dim>256</dim>
					<dim>1</dim>
					<dim>256</dim>
					<dim>1</dim>
				</port>
			</input>
			<output>
				<port id="1" precision="FP16">
					<dim>256</dim>
					<dim>1</dim>
					<dim>256</dim>
					<dim>1</dim>
				</port>
				<port id="2" precision="FP16">
					<dim>256</dim>
					<dim>1</dim>
					<dim>256</dim>
					<dim>1</dim>
				</port>
			</output>
		</layer>
		<layer id="84" name="__module.transformer.encoder.layers.1.self_attn/aten::linear/MatMul" type="FullyConnected">
			<data execOrder="460" execTimeMcs="not_executed" originalLayersNames="__module.transformer.encoder.layers.1.self_attn/aten::linear/MatMul,__module.transformer.encoder.layers.1.self_attn/aten::linear/Add" outputLayouts="bfyx" outputPrecisions="f16" primitiveType="jit:gemm:any__f16" runtimePrecision="f16" />
			<input>
				<port id="0" precision="FP16">
					<dim>256</dim>
					<dim>1</dim>
					<dim>256</dim>
					<dim>1</dim>
				</port>
			</input>
			<output>
				<port id="1" precision="FP16">
					<dim>256</dim>
					<dim>1</dim>
					<dim>256</dim>
					<dim>1</dim>
				</port>
			</output>
		</layer>
		<layer id="85" name="__module.transformer.encoder.layers.1.self_attn/aten::view/Reshape" type="Reshape">
			<data execOrder="464" execTimeMcs="not_executed" originalLayersNames="__module.transformer.encoder.layers.1.self_attn/aten::view/Reshape" outputLayouts="bfyx" outputPrecisions="f16" primitiveType="undef" runtimePrecision="f16" />
			<input>
				<port id="0" precision="FP16">
					<dim>256</dim>
					<dim>1</dim>
					<dim>256</dim>
					<dim>1</dim>
				</port>
			</input>
			<output>
				<port id="1" precision="FP16">
					<dim>256</dim>
					<dim>8</dim>
					<dim>32</dim>
					<dim>1</dim>
				</port>
			</output>
		</layer>
		<layer id="86" name="__module.transformer.encoder.layers.1.self_attn/aten::transpose/Transpose" type="Permute">
			<data execOrder="466" execTimeMcs="not_executed" originalLayersNames="__module.transformer.encoder.layers.1.self_attn/aten::transpose/Transpose" outputLayouts="bfyx" outputPrecisions="f16" primitiveType="permute_ref__f16" runtimePrecision="f16" />
			<input>
				<port id="0" precision="FP16">
					<dim>256</dim>
					<dim>8</dim>
					<dim>32</dim>
					<dim>1</dim>
				</port>
			</input>
			<output>
				<port id="1" precision="FP16">
					<dim>8</dim>
					<dim>256</dim>
					<dim>32</dim>
					<dim>1</dim>
				</port>
			</output>
		</layer>
		<layer id="87" name="__module.transformer.encoder.layers.1.self_attn/aten::view/Reshape_1" type="Reshape">
			<data execOrder="469" execTimeMcs="not_executed" originalLayersNames="__module.transformer.encoder.layers.1.self_attn/aten::view/Reshape_1" outputLayouts="bfyx" outputPrecisions="f16" primitiveType="undef" runtimePrecision="f16" />
			<input>
				<port id="0" precision="FP16">
					<dim>8</dim>
					<dim>256</dim>
					<dim>32</dim>
					<dim>1</dim>
				</port>
			</input>
			<output>
				<port id="1" precision="FP16">
					<dim>1</dim>
					<dim>8</dim>
					<dim>256</dim>
					<dim>32</dim>
				</port>
			</output>
		</layer>
		<layer id="88" name="__module.transformer.encoder.layers.1.self_attn/aten::linear/MatMul_1" type="FullyConnected">
			<data execOrder="459" execTimeMcs="not_executed" originalLayersNames="__module.transformer.encoder.layers.1.self_attn/aten::linear/MatMul_1,__module.transformer.encoder.layers.1.self_attn/aten::linear/Add_1" outputLayouts="bfyx" outputPrecisions="f16" primitiveType="jit:gemm:any__f16" runtimePrecision="f16" />
			<input>
				<port id="0" precision="FP16">
					<dim>256</dim>
					<dim>1</dim>
					<dim>256</dim>
					<dim>1</dim>
				</port>
			</input>
			<output>
				<port id="1" precision="FP16">
					<dim>256</dim>
					<dim>1</dim>
					<dim>256</dim>
					<dim>1</dim>
				</port>
			</output>
		</layer>
		<layer id="89" name="__module.transformer.encoder.layers.1.self_attn/aten::view/Reshape_2" type="Reshape">
			<data execOrder="463" execTimeMcs="not_executed" originalLayersNames="__module.transformer.encoder.layers.1.self_attn/aten::view/Reshape_2" outputLayouts="bfyx" outputPrecisions="f16" primitiveType="undef" runtimePrecision="f16" />
			<input>
				<port id="0" precision="FP16">
					<dim>256</dim>
					<dim>1</dim>
					<dim>256</dim>
					<dim>1</dim>
				</port>
			</input>
			<output>
				<port id="1" precision="FP16">
					<dim>256</dim>
					<dim>8</dim>
					<dim>32</dim>
					<dim>1</dim>
				</port>
			</output>
		</layer>
		<layer id="90" name="__module.transformer.encoder.layers.1.self_attn/aten::transpose/Transpose_1" type="Permute">
			<data execOrder="465" execTimeMcs="not_executed" originalLayersNames="__module.transformer.encoder.layers.1.self_attn/aten::transpose/Transpose_1" outputLayouts="bfyx" outputPrecisions="f16" primitiveType="permute_ref__f16" runtimePrecision="f16" />
			<input>
				<port id="0" precision="FP16">
					<dim>256</dim>
					<dim>8</dim>
					<dim>32</dim>
					<dim>1</dim>
				</port>
			</input>
			<output>
				<port id="1" precision="FP16">
					<dim>8</dim>
					<dim>256</dim>
					<dim>32</dim>
					<dim>1</dim>
				</port>
			</output>
		</layer>
		<layer id="91" name="__module.transformer.encoder.layers.1.self_attn/aten::view/Reshape_3" type="Reshape">
			<data execOrder="468" execTimeMcs="not_executed" originalLayersNames="__module.transformer.encoder.layers.1.self_attn/aten::view/Reshape_3" outputLayouts="bfyx" outputPrecisions="f16" primitiveType="undef" runtimePrecision="f16" />
			<input>
				<port id="0" precision="FP16">
					<dim>8</dim>
					<dim>256</dim>
					<dim>32</dim>
					<dim>1</dim>
				</port>
			</input>
			<output>
				<port id="1" precision="FP16">
					<dim>1</dim>
					<dim>8</dim>
					<dim>256</dim>
					<dim>32</dim>
				</port>
			</output>
		</layer>
		<layer id="92" name="__module.transformer.encoder.layers.1.self_attn/aten::linear/MatMul_2" type="FullyConnected">
			<data execOrder="457" execTimeMcs="not_executed" originalLayersNames="__module.transformer.encoder.layers.1.self_attn/aten::linear/MatMul_2,__module.transformer.encoder.layers.1.self_attn/aten::linear/Add_2" outputLayouts="bfyx" outputPrecisions="f16" primitiveType="jit:gemm:any__f16" runtimePrecision="f16" />
			<input>
				<port id="0" precision="FP16">
					<dim>256</dim>
					<dim>1</dim>
					<dim>256</dim>
					<dim>1</dim>
				</port>
			</input>
			<output>
				<port id="1" precision="FP16">
					<dim>256</dim>
					<dim>1</dim>
					<dim>256</dim>
					<dim>1</dim>
				</port>
			</output>
		</layer>
		<layer id="93" name="__module.transformer.encoder.layers.1.self_attn/aten::view/Reshape_4" type="Reshape">
			<data execOrder="461" execTimeMcs="not_executed" originalLayersNames="__module.transformer.encoder.layers.1.self_attn/aten::view/Reshape_4" outputLayouts="bfyx" outputPrecisions="f16" primitiveType="undef" runtimePrecision="f16" />
			<input>
				<port id="0" precision="FP16">
					<dim>256</dim>
					<dim>1</dim>
					<dim>256</dim>
					<dim>1</dim>
				</port>
			</input>
			<output>
				<port id="1" precision="FP16">
					<dim>256</dim>
					<dim>8</dim>
					<dim>32</dim>
					<dim>1</dim>
				</port>
			</output>
		</layer>
		<layer id="94" name="__module.transformer.encoder.layers.1.self_attn/aten::transpose/Transpose_2" type="Permute">
			<data execOrder="462" execTimeMcs="not_executed" originalLayersNames="__module.transformer.encoder.layers.1.self_attn/aten::transpose/Transpose_2" outputLayouts="bfyx" outputPrecisions="f16" primitiveType="permute_ref__f16" runtimePrecision="f16" />
			<input>
				<port id="0" precision="FP16">
					<dim>256</dim>
					<dim>8</dim>
					<dim>32</dim>
					<dim>1</dim>
				</port>
			</input>
			<output>
				<port id="1" precision="FP16">
					<dim>8</dim>
					<dim>256</dim>
					<dim>32</dim>
					<dim>1</dim>
				</port>
			</output>
		</layer>
		<layer id="95" name="__module.transformer.encoder.layers.1.self_attn/aten::view/Reshape_5" type="Reshape">
			<data execOrder="467" execTimeMcs="not_executed" originalLayersNames="__module.transformer.encoder.layers.1.self_attn/aten::view/Reshape_5" outputLayouts="bfyx" outputPrecisions="f16" primitiveType="undef" runtimePrecision="f16" />
			<input>
				<port id="0" precision="FP16">
					<dim>8</dim>
					<dim>256</dim>
					<dim>32</dim>
					<dim>1</dim>
				</port>
			</input>
			<output>
				<port id="1" precision="FP16">
					<dim>1</dim>
					<dim>8</dim>
					<dim>256</dim>
					<dim>32</dim>
				</port>
			</output>
		</layer>
		<layer id="96" name="__module.transformer.encoder.layers.1.self_attn/aten::scaled_dot_product_attention/ScaledDotProductAttention" type="scaled_dot_product_attention">
			<data execOrder="470" execTimeMcs="not_executed" originalLayersNames="__module.transformer.encoder.layers.1.self_attn/aten::scaled_dot_product_attention/ScaledDotProductAttention" outputLayouts="bfyx" outputPrecisions="f16" primitiveType="sdpa_micro__f16" runtimePrecision="f16" />
			<input>
				<port id="0" precision="FP16">
					<dim>1</dim>
					<dim>8</dim>
					<dim>256</dim>
					<dim>32</dim>
				</port>
				<port id="1" precision="FP16">
					<dim>1</dim>
					<dim>8</dim>
					<dim>256</dim>
					<dim>32</dim>
				</port>
				<port id="2" precision="FP16">
					<dim>1</dim>
					<dim>8</dim>
					<dim>256</dim>
					<dim>32</dim>
				</port>
			</input>
			<output>
				<port id="3" precision="FP16">
					<dim>1</dim>
					<dim>8</dim>
					<dim>256</dim>
					<dim>32</dim>
				</port>
			</output>
		</layer>
		<layer id="97" name="__module.transformer.encoder.layers.1.self_attn/aten::permute/Transpose" type="Permute">
			<data execOrder="471" execTimeMcs="not_executed" originalLayersNames="__module.transformer.encoder.layers.1.self_attn/aten::permute/Transpose" outputLayouts="bfyx" outputPrecisions="f16" primitiveType="permute_ref__f16" runtimePrecision="f16" />
			<input>
				<port id="0" precision="FP16">
					<dim>1</dim>
					<dim>8</dim>
					<dim>256</dim>
					<dim>32</dim>
				</port>
			</input>
			<output>
				<port id="1" precision="FP16">
					<dim>256</dim>
					<dim>1</dim>
					<dim>8</dim>
					<dim>32</dim>
				</port>
			</output>
		</layer>
		<layer id="98" name="__module.transformer.encoder.layers.1.self_attn/aten::view/Reshape_8" type="Reshape">
			<data execOrder="472" execTimeMcs="not_executed" originalLayersNames="__module.transformer.encoder.layers.1.self_attn/aten::view/Reshape_8" outputLayouts="bfyx" outputPrecisions="f16" primitiveType="undef" runtimePrecision="f16" />
			<input>
				<port id="0" precision="FP16">
					<dim>256</dim>
					<dim>1</dim>
					<dim>8</dim>
					<dim>32</dim>
				</port>
			</input>
			<output>
				<port id="1" precision="FP16">
					<dim>256</dim>
					<dim>256</dim>
					<dim>1</dim>
					<dim>1</dim>
				</port>
			</output>
		</layer>
		<layer id="99" name="__module.transformer.encoder.layers.1.self_attn/aten::linear/MatMul_3" type="FullyConnected">
			<data execOrder="473" execTimeMcs="not_executed" originalLayersNames="__module.transformer.encoder.layers.1.self_attn/aten::linear/MatMul_3,__module.transformer.encoder.layers.1.self_attn/aten::linear/Add_3" outputLayouts="bfyx" outputPrecisions="f16" primitiveType="jit:gemm:any__f16" runtimePrecision="f16" />
			<input>
				<port id="0" precision="FP16">
					<dim>256</dim>
					<dim>256</dim>
					<dim>1</dim>
					<dim>1</dim>
				</port>
			</input>
			<output>
				<port id="1" precision="FP16">
					<dim>256</dim>
					<dim>256</dim>
					<dim>1</dim>
					<dim>1</dim>
				</port>
			</output>
		</layer>
		<layer id="100" name="__module.transformer.encoder.layers.1.self_attn/aten::view/Reshape_9" type="Reshape">
			<data execOrder="474" execTimeMcs="not_executed" originalLayersNames="__module.transformer.encoder.layers.1.self_attn/aten::view/Reshape_9" outputLayouts="bfyx" outputPrecisions="f16" primitiveType="undef" runtimePrecision="f16" />
			<input>
				<port id="0" precision="FP16">
					<dim>256</dim>
					<dim>256</dim>
					<dim>1</dim>
					<dim>1</dim>
				</port>
			</input>
			<output>
				<port id="1" precision="FP16">
					<dim>256</dim>
					<dim>1</dim>
					<dim>256</dim>
					<dim>1</dim>
				</port>
			</output>
		</layer>
		<layer id="101" name="__module.transformer.encoder.layers.1/aten::add/Add_1" type="Eltwise">
			<data execOrder="475" execTimeMcs="not_executed" originalLayersNames="__module.transformer.encoder.layers.1/aten::add/Add_1" outputLayouts="bfyx" outputPrecisions="f16" primitiveType="eltwise_simple_vload8__f16" runtimePrecision="f16" />
			<input>
				<port id="0" precision="FP16">
					<dim>256</dim>
					<dim>1</dim>
					<dim>256</dim>
					<dim>1</dim>
				</port>
				<port id="1" precision="FP16">
					<dim>256</dim>
					<dim>1</dim>
					<dim>256</dim>
					<dim>1</dim>
				</port>
			</input>
			<output>
				<port id="2" precision="FP16">
					<dim>256</dim>
					<dim>1</dim>
					<dim>256</dim>
					<dim>1</dim>
				</port>
			</output>
		</layer>
		<layer id="102" name="__module.transformer.encoder.layers.1.norm1/aten::layer_norm/MVN" type="MVN">
			<data execOrder="476" execTimeMcs="not_executed" originalLayersNames="__module.transformer.encoder.layers.1.norm1/aten::layer_norm/MVN,__module.transformer.encoder.layers.1.norm1/aten::layer_norm/Multiply_1,__module.transformer.encoder.layers.1.norm1/aten::layer_norm/Add" outputLayouts="bfyx" outputPrecisions="f16" primitiveType="mvn_gpu_bfyx_opt__f16" runtimePrecision="f16" />
			<input>
				<port id="0" precision="FP16">
					<dim>256</dim>
					<dim>1</dim>
					<dim>256</dim>
					<dim>1</dim>
				</port>
			</input>
			<output>
				<port id="1" precision="FP16">
					<dim>256</dim>
					<dim>1</dim>
					<dim>256</dim>
					<dim>1</dim>
				</port>
				<port id="2" precision="FP16">
					<dim>256</dim>
					<dim>1</dim>
					<dim>256</dim>
					<dim>1</dim>
				</port>
			</output>
		</layer>
		<layer id="103" name="__module.transformer.encoder.layers.1.linear1/aten::linear/MatMul" type="FullyConnected">
			<data execOrder="477" execTimeMcs="not_executed" originalLayersNames="__module.transformer.encoder.layers.1.linear1/aten::linear/MatMul,__module.transformer.encoder.layers.1.linear1/aten::linear/Add,__module.transformer.encoder.layers.1/aten::relu/Relu" outputLayouts="bfyx" outputPrecisions="f16" primitiveType="jit:gemm:any__f16" runtimePrecision="f16" />
			<input>
				<port id="0" precision="FP16">
					<dim>256</dim>
					<dim>1</dim>
					<dim>256</dim>
					<dim>1</dim>
				</port>
			</input>
			<output>
				<port id="1" precision="FP16">
					<dim>256</dim>
					<dim>1</dim>
					<dim>2048</dim>
					<dim>1</dim>
				</port>
			</output>
		</layer>
		<layer id="104" name="__module.transformer.encoder.layers.1.linear2/aten::linear/MatMul" type="FullyConnected">
			<data execOrder="478" execTimeMcs="not_executed" originalLayersNames="__module.transformer.encoder.layers.1.linear2/aten::linear/MatMul,__module.transformer.encoder.layers.1.linear2/aten::linear/Add,__module.transformer.encoder.layers.1/aten::add/Add_2" outputLayouts="bfyx" outputPrecisions="f16" primitiveType="jit:gemm:any__f16" runtimePrecision="f16" />
			<input>
				<port id="0" precision="FP16">
					<dim>256</dim>
					<dim>1</dim>
					<dim>2048</dim>
					<dim>1</dim>
				</port>
				<port id="1" precision="FP16">
					<dim>256</dim>
					<dim>1</dim>
					<dim>256</dim>
					<dim>1</dim>
				</port>
			</input>
			<output>
				<port id="2" precision="FP16">
					<dim>256</dim>
					<dim>1</dim>
					<dim>256</dim>
					<dim>1</dim>
				</port>
			</output>
		</layer>
		<layer id="105" name="__module.transformer.encoder.layers.1.norm2/aten::layer_norm/MVN" type="MVN">
			<data execOrder="479" execTimeMcs="not_executed" originalLayersNames="__module.transformer.encoder.layers.1.norm2/aten::layer_norm/MVN,__module.transformer.encoder.layers.1.norm2/aten::layer_norm/Multiply_1,__module.transformer.encoder.layers.1.norm2/aten::layer_norm/Add" outputLayouts="bfyx" outputPrecisions="f16" primitiveType="mvn_gpu_bfyx_opt__f16" runtimePrecision="f16" />
			<input>
				<port id="0" precision="FP16">
					<dim>256</dim>
					<dim>1</dim>
					<dim>256</dim>
					<dim>1</dim>
				</port>
			</input>
			<output>
				<port id="1" precision="FP16">
					<dim>256</dim>
					<dim>1</dim>
					<dim>256</dim>
					<dim>1</dim>
				</port>
				<port id="2" precision="FP16">
					<dim>256</dim>
					<dim>1</dim>
					<dim>256</dim>
					<dim>1</dim>
				</port>
				<port id="3" precision="FP16">
					<dim>256</dim>
					<dim>1</dim>
					<dim>256</dim>
					<dim>1</dim>
				</port>
			</output>
		</layer>
		<layer id="106" name="__module.transformer.encoder.layers.2/aten::add/Add" type="Eltwise">
			<data execOrder="481" execTimeMcs="not_executed" originalLayersNames="__module.transformer.encoder.layers.2/aten::add/Add" outputLayouts="bfyx" outputPrecisions="f16" primitiveType="eltwise_simple_vload8__f16" runtimePrecision="f16" />
			<input>
				<port id="0" precision="FP16">
					<dim>256</dim>
					<dim>1</dim>
					<dim>256</dim>
					<dim>1</dim>
				</port>
			</input>
			<output>
				<port id="1" precision="FP16">
					<dim>256</dim>
					<dim>1</dim>
					<dim>256</dim>
					<dim>1</dim>
				</port>
				<port id="2" precision="FP16">
					<dim>256</dim>
					<dim>1</dim>
					<dim>256</dim>
					<dim>1</dim>
				</port>
			</output>
		</layer>
		<layer id="107" name="__module.transformer.encoder.layers.2.self_attn/aten::linear/MatMul" type="FullyConnected">
			<data execOrder="483" execTimeMcs="not_executed" originalLayersNames="__module.transformer.encoder.layers.2.self_attn/aten::linear/MatMul,__module.transformer.encoder.layers.2.self_attn/aten::linear/Add" outputLayouts="bfyx" outputPrecisions="f16" primitiveType="jit:gemm:any__f16" runtimePrecision="f16" />
			<input>
				<port id="0" precision="FP16">
					<dim>256</dim>
					<dim>1</dim>
					<dim>256</dim>
					<dim>1</dim>
				</port>
			</input>
			<output>
				<port id="1" precision="FP16">
					<dim>256</dim>
					<dim>1</dim>
					<dim>256</dim>
					<dim>1</dim>
				</port>
			</output>
		</layer>
		<layer id="108" name="__module.transformer.encoder.layers.2.self_attn/aten::view/Reshape" type="Reshape">
			<data execOrder="487" execTimeMcs="not_executed" originalLayersNames="__module.transformer.encoder.layers.2.self_attn/aten::view/Reshape" outputLayouts="bfyx" outputPrecisions="f16" primitiveType="undef" runtimePrecision="f16" />
			<input>
				<port id="0" precision="FP16">
					<dim>256</dim>
					<dim>1</dim>
					<dim>256</dim>
					<dim>1</dim>
				</port>
			</input>
			<output>
				<port id="1" precision="FP16">
					<dim>256</dim>
					<dim>8</dim>
					<dim>32</dim>
					<dim>1</dim>
				</port>
			</output>
		</layer>
		<layer id="109" name="__module.transformer.encoder.layers.2.self_attn/aten::transpose/Transpose" type="Permute">
			<data execOrder="489" execTimeMcs="not_executed" originalLayersNames="__module.transformer.encoder.layers.2.self_attn/aten::transpose/Transpose" outputLayouts="bfyx" outputPrecisions="f16" primitiveType="permute_ref__f16" runtimePrecision="f16" />
			<input>
				<port id="0" precision="FP16">
					<dim>256</dim>
					<dim>8</dim>
					<dim>32</dim>
					<dim>1</dim>
				</port>
			</input>
			<output>
				<port id="1" precision="FP16">
					<dim>8</dim>
					<dim>256</dim>
					<dim>32</dim>
					<dim>1</dim>
				</port>
			</output>
		</layer>
		<layer id="110" name="__module.transformer.encoder.layers.2.self_attn/aten::view/Reshape_1" type="Reshape">
			<data execOrder="492" execTimeMcs="not_executed" originalLayersNames="__module.transformer.encoder.layers.2.self_attn/aten::view/Reshape_1" outputLayouts="bfyx" outputPrecisions="f16" primitiveType="undef" runtimePrecision="f16" />
			<input>
				<port id="0" precision="FP16">
					<dim>8</dim>
					<dim>256</dim>
					<dim>32</dim>
					<dim>1</dim>
				</port>
			</input>
			<output>
				<port id="1" precision="FP16">
					<dim>1</dim>
					<dim>8</dim>
					<dim>256</dim>
					<dim>32</dim>
				</port>
			</output>
		</layer>
		<layer id="111" name="__module.transformer.encoder.layers.2.self_attn/aten::linear/MatMul_1" type="FullyConnected">
			<data execOrder="482" execTimeMcs="not_executed" originalLayersNames="__module.transformer.encoder.layers.2.self_attn/aten::linear/MatMul_1,__module.transformer.encoder.layers.2.self_attn/aten::linear/Add_1" outputLayouts="bfyx" outputPrecisions="f16" primitiveType="jit:gemm:any__f16" runtimePrecision="f16" />
			<input>
				<port id="0" precision="FP16">
					<dim>256</dim>
					<dim>1</dim>
					<dim>256</dim>
					<dim>1</dim>
				</port>
			</input>
			<output>
				<port id="1" precision="FP16">
					<dim>256</dim>
					<dim>1</dim>
					<dim>256</dim>
					<dim>1</dim>
				</port>
			</output>
		</layer>
		<layer id="112" name="__module.transformer.encoder.layers.2.self_attn/aten::view/Reshape_2" type="Reshape">
			<data execOrder="486" execTimeMcs="not_executed" originalLayersNames="__module.transformer.encoder.layers.2.self_attn/aten::view/Reshape_2" outputLayouts="bfyx" outputPrecisions="f16" primitiveType="undef" runtimePrecision="f16" />
			<input>
				<port id="0" precision="FP16">
					<dim>256</dim>
					<dim>1</dim>
					<dim>256</dim>
					<dim>1</dim>
				</port>
			</input>
			<output>
				<port id="1" precision="FP16">
					<dim>256</dim>
					<dim>8</dim>
					<dim>32</dim>
					<dim>1</dim>
				</port>
			</output>
		</layer>
		<layer id="113" name="__module.transformer.encoder.layers.2.self_attn/aten::transpose/Transpose_1" type="Permute">
			<data execOrder="488" execTimeMcs="not_executed" originalLayersNames="__module.transformer.encoder.layers.2.self_attn/aten::transpose/Transpose_1" outputLayouts="bfyx" outputPrecisions="f16" primitiveType="permute_ref__f16" runtimePrecision="f16" />
			<input>
				<port id="0" precision="FP16">
					<dim>256</dim>
					<dim>8</dim>
					<dim>32</dim>
					<dim>1</dim>
				</port>
			</input>
			<output>
				<port id="1" precision="FP16">
					<dim>8</dim>
					<dim>256</dim>
					<dim>32</dim>
					<dim>1</dim>
				</port>
			</output>
		</layer>
		<layer id="114" name="__module.transformer.encoder.layers.2.self_attn/aten::view/Reshape_3" type="Reshape">
			<data execOrder="491" execTimeMcs="not_executed" originalLayersNames="__module.transformer.encoder.layers.2.self_attn/aten::view/Reshape_3" outputLayouts="bfyx" outputPrecisions="f16" primitiveType="undef" runtimePrecision="f16" />
			<input>
				<port id="0" precision="FP16">
					<dim>8</dim>
					<dim>256</dim>
					<dim>32</dim>
					<dim>1</dim>
				</port>
			</input>
			<output>
				<port id="1" precision="FP16">
					<dim>1</dim>
					<dim>8</dim>
					<dim>256</dim>
					<dim>32</dim>
				</port>
			</output>
		</layer>
		<layer id="115" name="__module.transformer.encoder.layers.2.self_attn/aten::linear/MatMul_2" type="FullyConnected">
			<data execOrder="480" execTimeMcs="not_executed" originalLayersNames="__module.transformer.encoder.layers.2.self_attn/aten::linear/MatMul_2,__module.transformer.encoder.layers.2.self_attn/aten::linear/Add_2" outputLayouts="bfyx" outputPrecisions="f16" primitiveType="jit:gemm:any__f16" runtimePrecision="f16" />
			<input>
				<port id="0" precision="FP16">
					<dim>256</dim>
					<dim>1</dim>
					<dim>256</dim>
					<dim>1</dim>
				</port>
			</input>
			<output>
				<port id="1" precision="FP16">
					<dim>256</dim>
					<dim>1</dim>
					<dim>256</dim>
					<dim>1</dim>
				</port>
			</output>
		</layer>
		<layer id="116" name="__module.transformer.encoder.layers.2.self_attn/aten::view/Reshape_4" type="Reshape">
			<data execOrder="484" execTimeMcs="not_executed" originalLayersNames="__module.transformer.encoder.layers.2.self_attn/aten::view/Reshape_4" outputLayouts="bfyx" outputPrecisions="f16" primitiveType="undef" runtimePrecision="f16" />
			<input>
				<port id="0" precision="FP16">
					<dim>256</dim>
					<dim>1</dim>
					<dim>256</dim>
					<dim>1</dim>
				</port>
			</input>
			<output>
				<port id="1" precision="FP16">
					<dim>256</dim>
					<dim>8</dim>
					<dim>32</dim>
					<dim>1</dim>
				</port>
			</output>
		</layer>
		<layer id="117" name="__module.transformer.encoder.layers.2.self_attn/aten::transpose/Transpose_2" type="Permute">
			<data execOrder="485" execTimeMcs="not_executed" originalLayersNames="__module.transformer.encoder.layers.2.self_attn/aten::transpose/Transpose_2" outputLayouts="bfyx" outputPrecisions="f16" primitiveType="permute_ref__f16" runtimePrecision="f16" />
			<input>
				<port id="0" precision="FP16">
					<dim>256</dim>
					<dim>8</dim>
					<dim>32</dim>
					<dim>1</dim>
				</port>
			</input>
			<output>
				<port id="1" precision="FP16">
					<dim>8</dim>
					<dim>256</dim>
					<dim>32</dim>
					<dim>1</dim>
				</port>
			</output>
		</layer>
		<layer id="118" name="__module.transformer.encoder.layers.2.self_attn/aten::view/Reshape_5" type="Reshape">
			<data execOrder="490" execTimeMcs="not_executed" originalLayersNames="__module.transformer.encoder.layers.2.self_attn/aten::view/Reshape_5" outputLayouts="bfyx" outputPrecisions="f16" primitiveType="undef" runtimePrecision="f16" />
			<input>
				<port id="0" precision="FP16">
					<dim>8</dim>
					<dim>256</dim>
					<dim>32</dim>
					<dim>1</dim>
				</port>
			</input>
			<output>
				<port id="1" precision="FP16">
					<dim>1</dim>
					<dim>8</dim>
					<dim>256</dim>
					<dim>32</dim>
				</port>
			</output>
		</layer>
		<layer id="119" name="__module.transformer.encoder.layers.2.self_attn/aten::scaled_dot_product_attention/ScaledDotProductAttention" type="scaled_dot_product_attention">
			<data execOrder="493" execTimeMcs="not_executed" originalLayersNames="__module.transformer.encoder.layers.2.self_attn/aten::scaled_dot_product_attention/ScaledDotProductAttention" outputLayouts="bfyx" outputPrecisions="f16" primitiveType="sdpa_micro__f16" runtimePrecision="f16" />
			<input>
				<port id="0" precision="FP16">
					<dim>1</dim>
					<dim>8</dim>
					<dim>256</dim>
					<dim>32</dim>
				</port>
				<port id="1" precision="FP16">
					<dim>1</dim>
					<dim>8</dim>
					<dim>256</dim>
					<dim>32</dim>
				</port>
				<port id="2" precision="FP16">
					<dim>1</dim>
					<dim>8</dim>
					<dim>256</dim>
					<dim>32</dim>
				</port>
			</input>
			<output>
				<port id="3" precision="FP16">
					<dim>1</dim>
					<dim>8</dim>
					<dim>256</dim>
					<dim>32</dim>
				</port>
			</output>
		</layer>
		<layer id="120" name="__module.transformer.encoder.layers.2.self_attn/aten::permute/Transpose" type="Permute">
			<data execOrder="494" execTimeMcs="not_executed" originalLayersNames="__module.transformer.encoder.layers.2.self_attn/aten::permute/Transpose" outputLayouts="bfyx" outputPrecisions="f16" primitiveType="permute_ref__f16" runtimePrecision="f16" />
			<input>
				<port id="0" precision="FP16">
					<dim>1</dim>
					<dim>8</dim>
					<dim>256</dim>
					<dim>32</dim>
				</port>
			</input>
			<output>
				<port id="1" precision="FP16">
					<dim>256</dim>
					<dim>1</dim>
					<dim>8</dim>
					<dim>32</dim>
				</port>
			</output>
		</layer>
		<layer id="121" name="__module.transformer.encoder.layers.2.self_attn/aten::view/Reshape_8" type="Reshape">
			<data execOrder="495" execTimeMcs="not_executed" originalLayersNames="__module.transformer.encoder.layers.2.self_attn/aten::view/Reshape_8" outputLayouts="bfyx" outputPrecisions="f16" primitiveType="undef" runtimePrecision="f16" />
			<input>
				<port id="0" precision="FP16">
					<dim>256</dim>
					<dim>1</dim>
					<dim>8</dim>
					<dim>32</dim>
				</port>
			</input>
			<output>
				<port id="1" precision="FP16">
					<dim>256</dim>
					<dim>256</dim>
					<dim>1</dim>
					<dim>1</dim>
				</port>
			</output>
		</layer>
		<layer id="122" name="__module.transformer.encoder.layers.2.self_attn/aten::linear/MatMul_3" type="FullyConnected">
			<data execOrder="496" execTimeMcs="not_executed" originalLayersNames="__module.transformer.encoder.layers.2.self_attn/aten::linear/MatMul_3,__module.transformer.encoder.layers.2.self_attn/aten::linear/Add_3" outputLayouts="bfyx" outputPrecisions="f16" primitiveType="jit:gemm:any__f16" runtimePrecision="f16" />
			<input>
				<port id="0" precision="FP16">
					<dim>256</dim>
					<dim>256</dim>
					<dim>1</dim>
					<dim>1</dim>
				</port>
			</input>
			<output>
				<port id="1" precision="FP16">
					<dim>256</dim>
					<dim>256</dim>
					<dim>1</dim>
					<dim>1</dim>
				</port>
			</output>
		</layer>
		<layer id="123" name="__module.transformer.encoder.layers.2.self_attn/aten::view/Reshape_9" type="Reshape">
			<data execOrder="497" execTimeMcs="not_executed" originalLayersNames="__module.transformer.encoder.layers.2.self_attn/aten::view/Reshape_9" outputLayouts="bfyx" outputPrecisions="f16" primitiveType="undef" runtimePrecision="f16" />
			<input>
				<port id="0" precision="FP16">
					<dim>256</dim>
					<dim>256</dim>
					<dim>1</dim>
					<dim>1</dim>
				</port>
			</input>
			<output>
				<port id="1" precision="FP16">
					<dim>256</dim>
					<dim>1</dim>
					<dim>256</dim>
					<dim>1</dim>
				</port>
			</output>
		</layer>
		<layer id="124" name="__module.transformer.encoder.layers.2/aten::add/Add_1" type="Eltwise">
			<data execOrder="498" execTimeMcs="not_executed" originalLayersNames="__module.transformer.encoder.layers.2/aten::add/Add_1" outputLayouts="bfyx" outputPrecisions="f16" primitiveType="eltwise_simple_vload8__f16" runtimePrecision="f16" />
			<input>
				<port id="0" precision="FP16">
					<dim>256</dim>
					<dim>1</dim>
					<dim>256</dim>
					<dim>1</dim>
				</port>
				<port id="1" precision="FP16">
					<dim>256</dim>
					<dim>1</dim>
					<dim>256</dim>
					<dim>1</dim>
				</port>
			</input>
			<output>
				<port id="2" precision="FP16">
					<dim>256</dim>
					<dim>1</dim>
					<dim>256</dim>
					<dim>1</dim>
				</port>
			</output>
		</layer>
		<layer id="125" name="__module.transformer.encoder.layers.2.norm1/aten::layer_norm/MVN" type="MVN">
			<data execOrder="499" execTimeMcs="not_executed" originalLayersNames="__module.transformer.encoder.layers.2.norm1/aten::layer_norm/MVN,__module.transformer.encoder.layers.2.norm1/aten::layer_norm/Multiply_1,__module.transformer.encoder.layers.2.norm1/aten::layer_norm/Add" outputLayouts="bfyx" outputPrecisions="f16" primitiveType="mvn_gpu_bfyx_opt__f16" runtimePrecision="f16" />
			<input>
				<port id="0" precision="FP16">
					<dim>256</dim>
					<dim>1</dim>
					<dim>256</dim>
					<dim>1</dim>
				</port>
			</input>
			<output>
				<port id="1" precision="FP16">
					<dim>256</dim>
					<dim>1</dim>
					<dim>256</dim>
					<dim>1</dim>
				</port>
				<port id="2" precision="FP16">
					<dim>256</dim>
					<dim>1</dim>
					<dim>256</dim>
					<dim>1</dim>
				</port>
			</output>
		</layer>
		<layer id="126" name="__module.transformer.encoder.layers.2.linear1/aten::linear/MatMul" type="FullyConnected">
			<data execOrder="500" execTimeMcs="not_executed" originalLayersNames="__module.transformer.encoder.layers.2.linear1/aten::linear/MatMul,__module.transformer.encoder.layers.2.linear1/aten::linear/Add,__module.transformer.encoder.layers.2/aten::relu/Relu" outputLayouts="bfyx" outputPrecisions="f16" primitiveType="jit:gemm:any__f16" runtimePrecision="f16" />
			<input>
				<port id="0" precision="FP16">
					<dim>256</dim>
					<dim>1</dim>
					<dim>256</dim>
					<dim>1</dim>
				</port>
			</input>
			<output>
				<port id="1" precision="FP16">
					<dim>256</dim>
					<dim>1</dim>
					<dim>2048</dim>
					<dim>1</dim>
				</port>
			</output>
		</layer>
		<layer id="127" name="__module.transformer.encoder.layers.2.linear2/aten::linear/MatMul" type="FullyConnected">
			<data execOrder="501" execTimeMcs="not_executed" originalLayersNames="__module.transformer.encoder.layers.2.linear2/aten::linear/MatMul,__module.transformer.encoder.layers.2.linear2/aten::linear/Add,__module.transformer.encoder.layers.2/aten::add/Add_2" outputLayouts="bfyx" outputPrecisions="f16" primitiveType="jit:gemm:any__f16" runtimePrecision="f16" />
			<input>
				<port id="0" precision="FP16">
					<dim>256</dim>
					<dim>1</dim>
					<dim>2048</dim>
					<dim>1</dim>
				</port>
				<port id="1" precision="FP16">
					<dim>256</dim>
					<dim>1</dim>
					<dim>256</dim>
					<dim>1</dim>
				</port>
			</input>
			<output>
				<port id="2" precision="FP16">
					<dim>256</dim>
					<dim>1</dim>
					<dim>256</dim>
					<dim>1</dim>
				</port>
			</output>
		</layer>
		<layer id="128" name="__module.transformer.encoder.layers.2.norm2/aten::layer_norm/MVN" type="MVN">
			<data execOrder="502" execTimeMcs="not_executed" originalLayersNames="__module.transformer.encoder.layers.2.norm2/aten::layer_norm/MVN,__module.transformer.encoder.layers.2.norm2/aten::layer_norm/Multiply_1,__module.transformer.encoder.layers.2.norm2/aten::layer_norm/Add" outputLayouts="bfyx" outputPrecisions="f16" primitiveType="mvn_gpu_bfyx_opt__f16" runtimePrecision="f16" />
			<input>
				<port id="0" precision="FP16">
					<dim>256</dim>
					<dim>1</dim>
					<dim>256</dim>
					<dim>1</dim>
				</port>
			</input>
			<output>
				<port id="1" precision="FP16">
					<dim>256</dim>
					<dim>1</dim>
					<dim>256</dim>
					<dim>1</dim>
				</port>
				<port id="2" precision="FP16">
					<dim>256</dim>
					<dim>1</dim>
					<dim>256</dim>
					<dim>1</dim>
				</port>
				<port id="3" precision="FP16">
					<dim>256</dim>
					<dim>1</dim>
					<dim>256</dim>
					<dim>1</dim>
				</port>
			</output>
		</layer>
		<layer id="129" name="__module.transformer.encoder.layers.3/aten::add/Add" type="Eltwise">
			<data execOrder="504" execTimeMcs="not_executed" originalLayersNames="__module.transformer.encoder.layers.3/aten::add/Add" outputLayouts="bfyx" outputPrecisions="f16" primitiveType="eltwise_simple_vload8__f16" runtimePrecision="f16" />
			<input>
				<port id="0" precision="FP16">
					<dim>256</dim>
					<dim>1</dim>
					<dim>256</dim>
					<dim>1</dim>
				</port>
			</input>
			<output>
				<port id="1" precision="FP16">
					<dim>256</dim>
					<dim>1</dim>
					<dim>256</dim>
					<dim>1</dim>
				</port>
				<port id="2" precision="FP16">
					<dim>256</dim>
					<dim>1</dim>
					<dim>256</dim>
					<dim>1</dim>
				</port>
			</output>
		</layer>
		<layer id="130" name="__module.transformer.encoder.layers.3.self_attn/aten::linear/MatMul" type="FullyConnected">
			<data execOrder="506" execTimeMcs="not_executed" originalLayersNames="__module.transformer.encoder.layers.3.self_attn/aten::linear/MatMul,__module.transformer.encoder.layers.3.self_attn/aten::linear/Add" outputLayouts="bfyx" outputPrecisions="f16" primitiveType="jit:gemm:any__f16" runtimePrecision="f16" />
			<input>
				<port id="0" precision="FP16">
					<dim>256</dim>
					<dim>1</dim>
					<dim>256</dim>
					<dim>1</dim>
				</port>
			</input>
			<output>
				<port id="1" precision="FP16">
					<dim>256</dim>
					<dim>1</dim>
					<dim>256</dim>
					<dim>1</dim>
				</port>
			</output>
		</layer>
		<layer id="131" name="__module.transformer.encoder.layers.3.self_attn/aten::view/Reshape" type="Reshape">
			<data execOrder="510" execTimeMcs="not_executed" originalLayersNames="__module.transformer.encoder.layers.3.self_attn/aten::view/Reshape" outputLayouts="bfyx" outputPrecisions="f16" primitiveType="undef" runtimePrecision="f16" />
			<input>
				<port id="0" precision="FP16">
					<dim>256</dim>
					<dim>1</dim>
					<dim>256</dim>
					<dim>1</dim>
				</port>
			</input>
			<output>
				<port id="1" precision="FP16">
					<dim>256</dim>
					<dim>8</dim>
					<dim>32</dim>
					<dim>1</dim>
				</port>
			</output>
		</layer>
		<layer id="132" name="__module.transformer.encoder.layers.3.self_attn/aten::transpose/Transpose" type="Permute">
			<data execOrder="512" execTimeMcs="not_executed" originalLayersNames="__module.transformer.encoder.layers.3.self_attn/aten::transpose/Transpose" outputLayouts="bfyx" outputPrecisions="f16" primitiveType="permute_ref__f16" runtimePrecision="f16" />
			<input>
				<port id="0" precision="FP16">
					<dim>256</dim>
					<dim>8</dim>
					<dim>32</dim>
					<dim>1</dim>
				</port>
			</input>
			<output>
				<port id="1" precision="FP16">
					<dim>8</dim>
					<dim>256</dim>
					<dim>32</dim>
					<dim>1</dim>
				</port>
			</output>
		</layer>
		<layer id="133" name="__module.transformer.encoder.layers.3.self_attn/aten::view/Reshape_1" type="Reshape">
			<data execOrder="515" execTimeMcs="not_executed" originalLayersNames="__module.transformer.encoder.layers.3.self_attn/aten::view/Reshape_1" outputLayouts="bfyx" outputPrecisions="f16" primitiveType="undef" runtimePrecision="f16" />
			<input>
				<port id="0" precision="FP16">
					<dim>8</dim>
					<dim>256</dim>
					<dim>32</dim>
					<dim>1</dim>
				</port>
			</input>
			<output>
				<port id="1" precision="FP16">
					<dim>1</dim>
					<dim>8</dim>
					<dim>256</dim>
					<dim>32</dim>
				</port>
			</output>
		</layer>
		<layer id="134" name="__module.transformer.encoder.layers.3.self_attn/aten::linear/MatMul_1" type="FullyConnected">
			<data execOrder="505" execTimeMcs="not_executed" originalLayersNames="__module.transformer.encoder.layers.3.self_attn/aten::linear/MatMul_1,__module.transformer.encoder.layers.3.self_attn/aten::linear/Add_1" outputLayouts="bfyx" outputPrecisions="f16" primitiveType="jit:gemm:any__f16" runtimePrecision="f16" />
			<input>
				<port id="0" precision="FP16">
					<dim>256</dim>
					<dim>1</dim>
					<dim>256</dim>
					<dim>1</dim>
				</port>
			</input>
			<output>
				<port id="1" precision="FP16">
					<dim>256</dim>
					<dim>1</dim>
					<dim>256</dim>
					<dim>1</dim>
				</port>
			</output>
		</layer>
		<layer id="135" name="__module.transformer.encoder.layers.3.self_attn/aten::view/Reshape_2" type="Reshape">
			<data execOrder="509" execTimeMcs="not_executed" originalLayersNames="__module.transformer.encoder.layers.3.self_attn/aten::view/Reshape_2" outputLayouts="bfyx" outputPrecisions="f16" primitiveType="undef" runtimePrecision="f16" />
			<input>
				<port id="0" precision="FP16">
					<dim>256</dim>
					<dim>1</dim>
					<dim>256</dim>
					<dim>1</dim>
				</port>
			</input>
			<output>
				<port id="1" precision="FP16">
					<dim>256</dim>
					<dim>8</dim>
					<dim>32</dim>
					<dim>1</dim>
				</port>
			</output>
		</layer>
		<layer id="136" name="__module.transformer.encoder.layers.3.self_attn/aten::transpose/Transpose_1" type="Permute">
			<data execOrder="511" execTimeMcs="not_executed" originalLayersNames="__module.transformer.encoder.layers.3.self_attn/aten::transpose/Transpose_1" outputLayouts="bfyx" outputPrecisions="f16" primitiveType="permute_ref__f16" runtimePrecision="f16" />
			<input>
				<port id="0" precision="FP16">
					<dim>256</dim>
					<dim>8</dim>
					<dim>32</dim>
					<dim>1</dim>
				</port>
			</input>
			<output>
				<port id="1" precision="FP16">
					<dim>8</dim>
					<dim>256</dim>
					<dim>32</dim>
					<dim>1</dim>
				</port>
			</output>
		</layer>
		<layer id="137" name="__module.transformer.encoder.layers.3.self_attn/aten::view/Reshape_3" type="Reshape">
			<data execOrder="514" execTimeMcs="not_executed" originalLayersNames="__module.transformer.encoder.layers.3.self_attn/aten::view/Reshape_3" outputLayouts="bfyx" outputPrecisions="f16" primitiveType="undef" runtimePrecision="f16" />
			<input>
				<port id="0" precision="FP16">
					<dim>8</dim>
					<dim>256</dim>
					<dim>32</dim>
					<dim>1</dim>
				</port>
			</input>
			<output>
				<port id="1" precision="FP16">
					<dim>1</dim>
					<dim>8</dim>
					<dim>256</dim>
					<dim>32</dim>
				</port>
			</output>
		</layer>
		<layer id="138" name="__module.transformer.encoder.layers.3.self_attn/aten::linear/MatMul_2" type="FullyConnected">
			<data execOrder="503" execTimeMcs="not_executed" originalLayersNames="__module.transformer.encoder.layers.3.self_attn/aten::linear/MatMul_2,__module.transformer.encoder.layers.3.self_attn/aten::linear/Add_2" outputLayouts="bfyx" outputPrecisions="f16" primitiveType="jit:gemm:any__f16" runtimePrecision="f16" />
			<input>
				<port id="0" precision="FP16">
					<dim>256</dim>
					<dim>1</dim>
					<dim>256</dim>
					<dim>1</dim>
				</port>
			</input>
			<output>
				<port id="1" precision="FP16">
					<dim>256</dim>
					<dim>1</dim>
					<dim>256</dim>
					<dim>1</dim>
				</port>
			</output>
		</layer>
		<layer id="139" name="__module.transformer.encoder.layers.3.self_attn/aten::view/Reshape_4" type="Reshape">
			<data execOrder="507" execTimeMcs="not_executed" originalLayersNames="__module.transformer.encoder.layers.3.self_attn/aten::view/Reshape_4" outputLayouts="bfyx" outputPrecisions="f16" primitiveType="undef" runtimePrecision="f16" />
			<input>
				<port id="0" precision="FP16">
					<dim>256</dim>
					<dim>1</dim>
					<dim>256</dim>
					<dim>1</dim>
				</port>
			</input>
			<output>
				<port id="1" precision="FP16">
					<dim>256</dim>
					<dim>8</dim>
					<dim>32</dim>
					<dim>1</dim>
				</port>
			</output>
		</layer>
		<layer id="140" name="__module.transformer.encoder.layers.3.self_attn/aten::transpose/Transpose_2" type="Permute">
			<data execOrder="508" execTimeMcs="not_executed" originalLayersNames="__module.transformer.encoder.layers.3.self_attn/aten::transpose/Transpose_2" outputLayouts="bfyx" outputPrecisions="f16" primitiveType="permute_ref__f16" runtimePrecision="f16" />
			<input>
				<port id="0" precision="FP16">
					<dim>256</dim>
					<dim>8</dim>
					<dim>32</dim>
					<dim>1</dim>
				</port>
			</input>
			<output>
				<port id="1" precision="FP16">
					<dim>8</dim>
					<dim>256</dim>
					<dim>32</dim>
					<dim>1</dim>
				</port>
			</output>
		</layer>
		<layer id="141" name="__module.transformer.encoder.layers.3.self_attn/aten::view/Reshape_5" type="Reshape">
			<data execOrder="513" execTimeMcs="not_executed" originalLayersNames="__module.transformer.encoder.layers.3.self_attn/aten::view/Reshape_5" outputLayouts="bfyx" outputPrecisions="f16" primitiveType="undef" runtimePrecision="f16" />
			<input>
				<port id="0" precision="FP16">
					<dim>8</dim>
					<dim>256</dim>
					<dim>32</dim>
					<dim>1</dim>
				</port>
			</input>
			<output>
				<port id="1" precision="FP16">
					<dim>1</dim>
					<dim>8</dim>
					<dim>256</dim>
					<dim>32</dim>
				</port>
			</output>
		</layer>
		<layer id="142" name="__module.transformer.encoder.layers.3.self_attn/aten::scaled_dot_product_attention/ScaledDotProductAttention" type="scaled_dot_product_attention">
			<data execOrder="516" execTimeMcs="not_executed" originalLayersNames="__module.transformer.encoder.layers.3.self_attn/aten::scaled_dot_product_attention/ScaledDotProductAttention" outputLayouts="bfyx" outputPrecisions="f16" primitiveType="sdpa_micro__f16" runtimePrecision="f16" />
			<input>
				<port id="0" precision="FP16">
					<dim>1</dim>
					<dim>8</dim>
					<dim>256</dim>
					<dim>32</dim>
				</port>
				<port id="1" precision="FP16">
					<dim>1</dim>
					<dim>8</dim>
					<dim>256</dim>
					<dim>32</dim>
				</port>
				<port id="2" precision="FP16">
					<dim>1</dim>
					<dim>8</dim>
					<dim>256</dim>
					<dim>32</dim>
				</port>
			</input>
			<output>
				<port id="3" precision="FP16">
					<dim>1</dim>
					<dim>8</dim>
					<dim>256</dim>
					<dim>32</dim>
				</port>
			</output>
		</layer>
		<layer id="143" name="__module.transformer.encoder.layers.3.self_attn/aten::permute/Transpose" type="Permute">
			<data execOrder="517" execTimeMcs="not_executed" originalLayersNames="__module.transformer.encoder.layers.3.self_attn/aten::permute/Transpose" outputLayouts="bfyx" outputPrecisions="f16" primitiveType="permute_ref__f16" runtimePrecision="f16" />
			<input>
				<port id="0" precision="FP16">
					<dim>1</dim>
					<dim>8</dim>
					<dim>256</dim>
					<dim>32</dim>
				</port>
			</input>
			<output>
				<port id="1" precision="FP16">
					<dim>256</dim>
					<dim>1</dim>
					<dim>8</dim>
					<dim>32</dim>
				</port>
			</output>
		</layer>
		<layer id="144" name="__module.transformer.encoder.layers.3.self_attn/aten::view/Reshape_8" type="Reshape">
			<data execOrder="518" execTimeMcs="not_executed" originalLayersNames="__module.transformer.encoder.layers.3.self_attn/aten::view/Reshape_8" outputLayouts="bfyx" outputPrecisions="f16" primitiveType="undef" runtimePrecision="f16" />
			<input>
				<port id="0" precision="FP16">
					<dim>256</dim>
					<dim>1</dim>
					<dim>8</dim>
					<dim>32</dim>
				</port>
			</input>
			<output>
				<port id="1" precision="FP16">
					<dim>256</dim>
					<dim>256</dim>
					<dim>1</dim>
					<dim>1</dim>
				</port>
			</output>
		</layer>
		<layer id="145" name="__module.transformer.encoder.layers.3.self_attn/aten::linear/MatMul_3" type="FullyConnected">
			<data execOrder="519" execTimeMcs="not_executed" originalLayersNames="__module.transformer.encoder.layers.3.self_attn/aten::linear/MatMul_3,__module.transformer.encoder.layers.3.self_attn/aten::linear/Add_3" outputLayouts="bfyx" outputPrecisions="f16" primitiveType="jit:gemm:any__f16" runtimePrecision="f16" />
			<input>
				<port id="0" precision="FP16">
					<dim>256</dim>
					<dim>256</dim>
					<dim>1</dim>
					<dim>1</dim>
				</port>
			</input>
			<output>
				<port id="1" precision="FP16">
					<dim>256</dim>
					<dim>256</dim>
					<dim>1</dim>
					<dim>1</dim>
				</port>
			</output>
		</layer>
		<layer id="146" name="__module.transformer.encoder.layers.3.self_attn/aten::view/Reshape_9" type="Reshape">
			<data execOrder="520" execTimeMcs="not_executed" originalLayersNames="__module.transformer.encoder.layers.3.self_attn/aten::view/Reshape_9" outputLayouts="bfyx" outputPrecisions="f16" primitiveType="undef" runtimePrecision="f16" />
			<input>
				<port id="0" precision="FP16">
					<dim>256</dim>
					<dim>256</dim>
					<dim>1</dim>
					<dim>1</dim>
				</port>
			</input>
			<output>
				<port id="1" precision="FP16">
					<dim>256</dim>
					<dim>1</dim>
					<dim>256</dim>
					<dim>1</dim>
				</port>
			</output>
		</layer>
		<layer id="147" name="__module.transformer.encoder.layers.3/aten::add/Add_1" type="Eltwise">
			<data execOrder="521" execTimeMcs="not_executed" originalLayersNames="__module.transformer.encoder.layers.3/aten::add/Add_1" outputLayouts="bfyx" outputPrecisions="f16" primitiveType="eltwise_simple_vload8__f16" runtimePrecision="f16" />
			<input>
				<port id="0" precision="FP16">
					<dim>256</dim>
					<dim>1</dim>
					<dim>256</dim>
					<dim>1</dim>
				</port>
				<port id="1" precision="FP16">
					<dim>256</dim>
					<dim>1</dim>
					<dim>256</dim>
					<dim>1</dim>
				</port>
			</input>
			<output>
				<port id="2" precision="FP16">
					<dim>256</dim>
					<dim>1</dim>
					<dim>256</dim>
					<dim>1</dim>
				</port>
			</output>
		</layer>
		<layer id="148" name="__module.transformer.encoder.layers.3.norm1/aten::layer_norm/MVN" type="MVN">
			<data execOrder="522" execTimeMcs="not_executed" originalLayersNames="__module.transformer.encoder.layers.3.norm1/aten::layer_norm/MVN,__module.transformer.encoder.layers.3.norm1/aten::layer_norm/Multiply_1,__module.transformer.encoder.layers.3.norm1/aten::layer_norm/Add" outputLayouts="bfyx" outputPrecisions="f16" primitiveType="mvn_gpu_bfyx_opt__f16" runtimePrecision="f16" />
			<input>
				<port id="0" precision="FP16">
					<dim>256</dim>
					<dim>1</dim>
					<dim>256</dim>
					<dim>1</dim>
				</port>
			</input>
			<output>
				<port id="1" precision="FP16">
					<dim>256</dim>
					<dim>1</dim>
					<dim>256</dim>
					<dim>1</dim>
				</port>
				<port id="2" precision="FP16">
					<dim>256</dim>
					<dim>1</dim>
					<dim>256</dim>
					<dim>1</dim>
				</port>
			</output>
		</layer>
		<layer id="149" name="__module.transformer.encoder.layers.3.linear1/aten::linear/MatMul" type="FullyConnected">
			<data execOrder="523" execTimeMcs="not_executed" originalLayersNames="__module.transformer.encoder.layers.3.linear1/aten::linear/MatMul,__module.transformer.encoder.layers.3.linear1/aten::linear/Add,__module.transformer.encoder.layers.3/aten::relu/Relu" outputLayouts="bfyx" outputPrecisions="f16" primitiveType="jit:gemm:any__f16" runtimePrecision="f16" />
			<input>
				<port id="0" precision="FP16">
					<dim>256</dim>
					<dim>1</dim>
					<dim>256</dim>
					<dim>1</dim>
				</port>
			</input>
			<output>
				<port id="1" precision="FP16">
					<dim>256</dim>
					<dim>1</dim>
					<dim>2048</dim>
					<dim>1</dim>
				</port>
			</output>
		</layer>
		<layer id="150" name="__module.transformer.encoder.layers.3.linear2/aten::linear/MatMul" type="FullyConnected">
			<data execOrder="524" execTimeMcs="not_executed" originalLayersNames="__module.transformer.encoder.layers.3.linear2/aten::linear/MatMul,__module.transformer.encoder.layers.3.linear2/aten::linear/Add,__module.transformer.encoder.layers.3/aten::add/Add_2" outputLayouts="bfyx" outputPrecisions="f16" primitiveType="jit:gemm:any__f16" runtimePrecision="f16" />
			<input>
				<port id="0" precision="FP16">
					<dim>256</dim>
					<dim>1</dim>
					<dim>2048</dim>
					<dim>1</dim>
				</port>
				<port id="1" precision="FP16">
					<dim>256</dim>
					<dim>1</dim>
					<dim>256</dim>
					<dim>1</dim>
				</port>
			</input>
			<output>
				<port id="2" precision="FP16">
					<dim>256</dim>
					<dim>1</dim>
					<dim>256</dim>
					<dim>1</dim>
				</port>
			</output>
		</layer>
		<layer id="151" name="__module.transformer.encoder.layers.3.norm2/aten::layer_norm/MVN" type="MVN">
			<data execOrder="525" execTimeMcs="not_executed" originalLayersNames="__module.transformer.encoder.layers.3.norm2/aten::layer_norm/MVN,__module.transformer.encoder.layers.3.norm2/aten::layer_norm/Multiply_1,__module.transformer.encoder.layers.3.norm2/aten::layer_norm/Add" outputLayouts="bfyx" outputPrecisions="f16" primitiveType="mvn_gpu_bfyx_opt__f16" runtimePrecision="f16" />
			<input>
				<port id="0" precision="FP16">
					<dim>256</dim>
					<dim>1</dim>
					<dim>256</dim>
					<dim>1</dim>
				</port>
			</input>
			<output>
				<port id="1" precision="FP16">
					<dim>256</dim>
					<dim>1</dim>
					<dim>256</dim>
					<dim>1</dim>
				</port>
				<port id="2" precision="FP16">
					<dim>256</dim>
					<dim>1</dim>
					<dim>256</dim>
					<dim>1</dim>
				</port>
				<port id="3" precision="FP16">
					<dim>256</dim>
					<dim>1</dim>
					<dim>256</dim>
					<dim>1</dim>
				</port>
			</output>
		</layer>
		<layer id="152" name="__module.transformer.encoder.layers.4/aten::add/Add" type="Eltwise">
			<data execOrder="527" execTimeMcs="not_executed" originalLayersNames="__module.transformer.encoder.layers.4/aten::add/Add" outputLayouts="bfyx" outputPrecisions="f16" primitiveType="eltwise_simple_vload8__f16" runtimePrecision="f16" />
			<input>
				<port id="0" precision="FP16">
					<dim>256</dim>
					<dim>1</dim>
					<dim>256</dim>
					<dim>1</dim>
				</port>
			</input>
			<output>
				<port id="1" precision="FP16">
					<dim>256</dim>
					<dim>1</dim>
					<dim>256</dim>
					<dim>1</dim>
				</port>
				<port id="2" precision="FP16">
					<dim>256</dim>
					<dim>1</dim>
					<dim>256</dim>
					<dim>1</dim>
				</port>
			</output>
		</layer>
		<layer id="153" name="__module.transformer.encoder.layers.4.self_attn/aten::linear/MatMul" type="FullyConnected">
			<data execOrder="529" execTimeMcs="not_executed" originalLayersNames="__module.transformer.encoder.layers.4.self_attn/aten::linear/MatMul,__module.transformer.encoder.layers.4.self_attn/aten::linear/Add" outputLayouts="bfyx" outputPrecisions="f16" primitiveType="jit:gemm:any__f16" runtimePrecision="f16" />
			<input>
				<port id="0" precision="FP16">
					<dim>256</dim>
					<dim>1</dim>
					<dim>256</dim>
					<dim>1</dim>
				</port>
			</input>
			<output>
				<port id="1" precision="FP16">
					<dim>256</dim>
					<dim>1</dim>
					<dim>256</dim>
					<dim>1</dim>
				</port>
			</output>
		</layer>
		<layer id="154" name="__module.transformer.encoder.layers.4.self_attn/aten::view/Reshape" type="Reshape">
			<data execOrder="533" execTimeMcs="not_executed" originalLayersNames="__module.transformer.encoder.layers.4.self_attn/aten::view/Reshape" outputLayouts="bfyx" outputPrecisions="f16" primitiveType="undef" runtimePrecision="f16" />
			<input>
				<port id="0" precision="FP16">
					<dim>256</dim>
					<dim>1</dim>
					<dim>256</dim>
					<dim>1</dim>
				</port>
			</input>
			<output>
				<port id="1" precision="FP16">
					<dim>256</dim>
					<dim>8</dim>
					<dim>32</dim>
					<dim>1</dim>
				</port>
			</output>
		</layer>
		<layer id="155" name="__module.transformer.encoder.layers.4.self_attn/aten::transpose/Transpose" type="Permute">
			<data execOrder="535" execTimeMcs="not_executed" originalLayersNames="__module.transformer.encoder.layers.4.self_attn/aten::transpose/Transpose" outputLayouts="bfyx" outputPrecisions="f16" primitiveType="permute_ref__f16" runtimePrecision="f16" />
			<input>
				<port id="0" precision="FP16">
					<dim>256</dim>
					<dim>8</dim>
					<dim>32</dim>
					<dim>1</dim>
				</port>
			</input>
			<output>
				<port id="1" precision="FP16">
					<dim>8</dim>
					<dim>256</dim>
					<dim>32</dim>
					<dim>1</dim>
				</port>
			</output>
		</layer>
		<layer id="156" name="__module.transformer.encoder.layers.4.self_attn/aten::view/Reshape_1" type="Reshape">
			<data execOrder="538" execTimeMcs="not_executed" originalLayersNames="__module.transformer.encoder.layers.4.self_attn/aten::view/Reshape_1" outputLayouts="bfyx" outputPrecisions="f16" primitiveType="undef" runtimePrecision="f16" />
			<input>
				<port id="0" precision="FP16">
					<dim>8</dim>
					<dim>256</dim>
					<dim>32</dim>
					<dim>1</dim>
				</port>
			</input>
			<output>
				<port id="1" precision="FP16">
					<dim>1</dim>
					<dim>8</dim>
					<dim>256</dim>
					<dim>32</dim>
				</port>
			</output>
		</layer>
		<layer id="157" name="__module.transformer.encoder.layers.4.self_attn/aten::linear/MatMul_1" type="FullyConnected">
			<data execOrder="528" execTimeMcs="not_executed" originalLayersNames="__module.transformer.encoder.layers.4.self_attn/aten::linear/MatMul_1,__module.transformer.encoder.layers.4.self_attn/aten::linear/Add_1" outputLayouts="bfyx" outputPrecisions="f16" primitiveType="jit:gemm:any__f16" runtimePrecision="f16" />
			<input>
				<port id="0" precision="FP16">
					<dim>256</dim>
					<dim>1</dim>
					<dim>256</dim>
					<dim>1</dim>
				</port>
			</input>
			<output>
				<port id="1" precision="FP16">
					<dim>256</dim>
					<dim>1</dim>
					<dim>256</dim>
					<dim>1</dim>
				</port>
			</output>
		</layer>
		<layer id="158" name="__module.transformer.encoder.layers.4.self_attn/aten::view/Reshape_2" type="Reshape">
			<data execOrder="532" execTimeMcs="not_executed" originalLayersNames="__module.transformer.encoder.layers.4.self_attn/aten::view/Reshape_2" outputLayouts="bfyx" outputPrecisions="f16" primitiveType="undef" runtimePrecision="f16" />
			<input>
				<port id="0" precision="FP16">
					<dim>256</dim>
					<dim>1</dim>
					<dim>256</dim>
					<dim>1</dim>
				</port>
			</input>
			<output>
				<port id="1" precision="FP16">
					<dim>256</dim>
					<dim>8</dim>
					<dim>32</dim>
					<dim>1</dim>
				</port>
			</output>
		</layer>
		<layer id="159" name="__module.transformer.encoder.layers.4.self_attn/aten::transpose/Transpose_1" type="Permute">
			<data execOrder="534" execTimeMcs="not_executed" originalLayersNames="__module.transformer.encoder.layers.4.self_attn/aten::transpose/Transpose_1" outputLayouts="bfyx" outputPrecisions="f16" primitiveType="permute_ref__f16" runtimePrecision="f16" />
			<input>
				<port id="0" precision="FP16">
					<dim>256</dim>
					<dim>8</dim>
					<dim>32</dim>
					<dim>1</dim>
				</port>
			</input>
			<output>
				<port id="1" precision="FP16">
					<dim>8</dim>
					<dim>256</dim>
					<dim>32</dim>
					<dim>1</dim>
				</port>
			</output>
		</layer>
		<layer id="160" name="__module.transformer.encoder.layers.4.self_attn/aten::view/Reshape_3" type="Reshape">
			<data execOrder="537" execTimeMcs="not_executed" originalLayersNames="__module.transformer.encoder.layers.4.self_attn/aten::view/Reshape_3" outputLayouts="bfyx" outputPrecisions="f16" primitiveType="undef" runtimePrecision="f16" />
			<input>
				<port id="0" precision="FP16">
					<dim>8</dim>
					<dim>256</dim>
					<dim>32</dim>
					<dim>1</dim>
				</port>
			</input>
			<output>
				<port id="1" precision="FP16">
					<dim>1</dim>
					<dim>8</dim>
					<dim>256</dim>
					<dim>32</dim>
				</port>
			</output>
		</layer>
		<layer id="161" name="__module.transformer.encoder.layers.4.self_attn/aten::linear/MatMul_2" type="FullyConnected">
			<data execOrder="526" execTimeMcs="not_executed" originalLayersNames="__module.transformer.encoder.layers.4.self_attn/aten::linear/MatMul_2,__module.transformer.encoder.layers.4.self_attn/aten::linear/Add_2" outputLayouts="bfyx" outputPrecisions="f16" primitiveType="jit:gemm:any__f16" runtimePrecision="f16" />
			<input>
				<port id="0" precision="FP16">
					<dim>256</dim>
					<dim>1</dim>
					<dim>256</dim>
					<dim>1</dim>
				</port>
			</input>
			<output>
				<port id="1" precision="FP16">
					<dim>256</dim>
					<dim>1</dim>
					<dim>256</dim>
					<dim>1</dim>
				</port>
			</output>
		</layer>
		<layer id="162" name="__module.transformer.encoder.layers.4.self_attn/aten::view/Reshape_4" type="Reshape">
			<data execOrder="530" execTimeMcs="not_executed" originalLayersNames="__module.transformer.encoder.layers.4.self_attn/aten::view/Reshape_4" outputLayouts="bfyx" outputPrecisions="f16" primitiveType="undef" runtimePrecision="f16" />
			<input>
				<port id="0" precision="FP16">
					<dim>256</dim>
					<dim>1</dim>
					<dim>256</dim>
					<dim>1</dim>
				</port>
			</input>
			<output>
				<port id="1" precision="FP16">
					<dim>256</dim>
					<dim>8</dim>
					<dim>32</dim>
					<dim>1</dim>
				</port>
			</output>
		</layer>
		<layer id="163" name="__module.transformer.encoder.layers.4.self_attn/aten::transpose/Transpose_2" type="Permute">
			<data execOrder="531" execTimeMcs="not_executed" originalLayersNames="__module.transformer.encoder.layers.4.self_attn/aten::transpose/Transpose_2" outputLayouts="bfyx" outputPrecisions="f16" primitiveType="permute_ref__f16" runtimePrecision="f16" />
			<input>
				<port id="0" precision="FP16">
					<dim>256</dim>
					<dim>8</dim>
					<dim>32</dim>
					<dim>1</dim>
				</port>
			</input>
			<output>
				<port id="1" precision="FP16">
					<dim>8</dim>
					<dim>256</dim>
					<dim>32</dim>
					<dim>1</dim>
				</port>
			</output>
		</layer>
		<layer id="164" name="__module.transformer.encoder.layers.4.self_attn/aten::view/Reshape_5" type="Reshape">
			<data execOrder="536" execTimeMcs="not_executed" originalLayersNames="__module.transformer.encoder.layers.4.self_attn/aten::view/Reshape_5" outputLayouts="bfyx" outputPrecisions="f16" primitiveType="undef" runtimePrecision="f16" />
			<input>
				<port id="0" precision="FP16">
					<dim>8</dim>
					<dim>256</dim>
					<dim>32</dim>
					<dim>1</dim>
				</port>
			</input>
			<output>
				<port id="1" precision="FP16">
					<dim>1</dim>
					<dim>8</dim>
					<dim>256</dim>
					<dim>32</dim>
				</port>
			</output>
		</layer>
		<layer id="165" name="__module.transformer.encoder.layers.4.self_attn/aten::scaled_dot_product_attention/ScaledDotProductAttention" type="scaled_dot_product_attention">
			<data execOrder="539" execTimeMcs="not_executed" originalLayersNames="__module.transformer.encoder.layers.4.self_attn/aten::scaled_dot_product_attention/ScaledDotProductAttention" outputLayouts="bfyx" outputPrecisions="f16" primitiveType="sdpa_micro__f16" runtimePrecision="f16" />
			<input>
				<port id="0" precision="FP16">
					<dim>1</dim>
					<dim>8</dim>
					<dim>256</dim>
					<dim>32</dim>
				</port>
				<port id="1" precision="FP16">
					<dim>1</dim>
					<dim>8</dim>
					<dim>256</dim>
					<dim>32</dim>
				</port>
				<port id="2" precision="FP16">
					<dim>1</dim>
					<dim>8</dim>
					<dim>256</dim>
					<dim>32</dim>
				</port>
			</input>
			<output>
				<port id="3" precision="FP16">
					<dim>1</dim>
					<dim>8</dim>
					<dim>256</dim>
					<dim>32</dim>
				</port>
			</output>
		</layer>
		<layer id="166" name="__module.transformer.encoder.layers.4.self_attn/aten::permute/Transpose" type="Permute">
			<data execOrder="540" execTimeMcs="not_executed" originalLayersNames="__module.transformer.encoder.layers.4.self_attn/aten::permute/Transpose" outputLayouts="bfyx" outputPrecisions="f16" primitiveType="permute_ref__f16" runtimePrecision="f16" />
			<input>
				<port id="0" precision="FP16">
					<dim>1</dim>
					<dim>8</dim>
					<dim>256</dim>
					<dim>32</dim>
				</port>
			</input>
			<output>
				<port id="1" precision="FP16">
					<dim>256</dim>
					<dim>1</dim>
					<dim>8</dim>
					<dim>32</dim>
				</port>
			</output>
		</layer>
		<layer id="167" name="__module.transformer.encoder.layers.4.self_attn/aten::view/Reshape_8" type="Reshape">
			<data execOrder="541" execTimeMcs="not_executed" originalLayersNames="__module.transformer.encoder.layers.4.self_attn/aten::view/Reshape_8" outputLayouts="bfyx" outputPrecisions="f16" primitiveType="undef" runtimePrecision="f16" />
			<input>
				<port id="0" precision="FP16">
					<dim>256</dim>
					<dim>1</dim>
					<dim>8</dim>
					<dim>32</dim>
				</port>
			</input>
			<output>
				<port id="1" precision="FP16">
					<dim>256</dim>
					<dim>256</dim>
					<dim>1</dim>
					<dim>1</dim>
				</port>
			</output>
		</layer>
		<layer id="168" name="__module.transformer.encoder.layers.4.self_attn/aten::linear/MatMul_3" type="FullyConnected">
			<data execOrder="542" execTimeMcs="not_executed" originalLayersNames="__module.transformer.encoder.layers.4.self_attn/aten::linear/MatMul_3,__module.transformer.encoder.layers.4.self_attn/aten::linear/Add_3" outputLayouts="bfyx" outputPrecisions="f16" primitiveType="jit:gemm:any__f16" runtimePrecision="f16" />
			<input>
				<port id="0" precision="FP16">
					<dim>256</dim>
					<dim>256</dim>
					<dim>1</dim>
					<dim>1</dim>
				</port>
			</input>
			<output>
				<port id="1" precision="FP16">
					<dim>256</dim>
					<dim>256</dim>
					<dim>1</dim>
					<dim>1</dim>
				</port>
			</output>
		</layer>
		<layer id="169" name="__module.transformer.encoder.layers.4.self_attn/aten::view/Reshape_9" type="Reshape">
			<data execOrder="543" execTimeMcs="not_executed" originalLayersNames="__module.transformer.encoder.layers.4.self_attn/aten::view/Reshape_9" outputLayouts="bfyx" outputPrecisions="f16" primitiveType="undef" runtimePrecision="f16" />
			<input>
				<port id="0" precision="FP16">
					<dim>256</dim>
					<dim>256</dim>
					<dim>1</dim>
					<dim>1</dim>
				</port>
			</input>
			<output>
				<port id="1" precision="FP16">
					<dim>256</dim>
					<dim>1</dim>
					<dim>256</dim>
					<dim>1</dim>
				</port>
			</output>
		</layer>
		<layer id="170" name="__module.transformer.encoder.layers.4/aten::add/Add_1" type="Eltwise">
			<data execOrder="544" execTimeMcs="not_executed" originalLayersNames="__module.transformer.encoder.layers.4/aten::add/Add_1" outputLayouts="bfyx" outputPrecisions="f16" primitiveType="eltwise_simple_vload8__f16" runtimePrecision="f16" />
			<input>
				<port id="0" precision="FP16">
					<dim>256</dim>
					<dim>1</dim>
					<dim>256</dim>
					<dim>1</dim>
				</port>
				<port id="1" precision="FP16">
					<dim>256</dim>
					<dim>1</dim>
					<dim>256</dim>
					<dim>1</dim>
				</port>
			</input>
			<output>
				<port id="2" precision="FP16">
					<dim>256</dim>
					<dim>1</dim>
					<dim>256</dim>
					<dim>1</dim>
				</port>
			</output>
		</layer>
		<layer id="171" name="__module.transformer.encoder.layers.4.norm1/aten::layer_norm/MVN" type="MVN">
			<data execOrder="545" execTimeMcs="not_executed" originalLayersNames="__module.transformer.encoder.layers.4.norm1/aten::layer_norm/MVN,__module.transformer.encoder.layers.4.norm1/aten::layer_norm/Multiply_1,__module.transformer.encoder.layers.4.norm1/aten::layer_norm/Add" outputLayouts="bfyx" outputPrecisions="f16" primitiveType="mvn_gpu_bfyx_opt__f16" runtimePrecision="f16" />
			<input>
				<port id="0" precision="FP16">
					<dim>256</dim>
					<dim>1</dim>
					<dim>256</dim>
					<dim>1</dim>
				</port>
			</input>
			<output>
				<port id="1" precision="FP16">
					<dim>256</dim>
					<dim>1</dim>
					<dim>256</dim>
					<dim>1</dim>
				</port>
				<port id="2" precision="FP16">
					<dim>256</dim>
					<dim>1</dim>
					<dim>256</dim>
					<dim>1</dim>
				</port>
			</output>
		</layer>
		<layer id="172" name="__module.transformer.encoder.layers.4.linear1/aten::linear/MatMul" type="FullyConnected">
			<data execOrder="546" execTimeMcs="not_executed" originalLayersNames="__module.transformer.encoder.layers.4.linear1/aten::linear/MatMul,__module.transformer.encoder.layers.4.linear1/aten::linear/Add,__module.transformer.encoder.layers.4/aten::relu/Relu" outputLayouts="bfyx" outputPrecisions="f16" primitiveType="jit:gemm:any__f16" runtimePrecision="f16" />
			<input>
				<port id="0" precision="FP16">
					<dim>256</dim>
					<dim>1</dim>
					<dim>256</dim>
					<dim>1</dim>
				</port>
			</input>
			<output>
				<port id="1" precision="FP16">
					<dim>256</dim>
					<dim>1</dim>
					<dim>2048</dim>
					<dim>1</dim>
				</port>
			</output>
		</layer>
		<layer id="173" name="__module.transformer.encoder.layers.4.linear2/aten::linear/MatMul" type="FullyConnected">
			<data execOrder="547" execTimeMcs="not_executed" originalLayersNames="__module.transformer.encoder.layers.4.linear2/aten::linear/MatMul,__module.transformer.encoder.layers.4.linear2/aten::linear/Add,__module.transformer.encoder.layers.4/aten::add/Add_2" outputLayouts="bfyx" outputPrecisions="f16" primitiveType="jit:gemm:any__f16" runtimePrecision="f16" />
			<input>
				<port id="0" precision="FP16">
					<dim>256</dim>
					<dim>1</dim>
					<dim>2048</dim>
					<dim>1</dim>
				</port>
				<port id="1" precision="FP16">
					<dim>256</dim>
					<dim>1</dim>
					<dim>256</dim>
					<dim>1</dim>
				</port>
			</input>
			<output>
				<port id="2" precision="FP16">
					<dim>256</dim>
					<dim>1</dim>
					<dim>256</dim>
					<dim>1</dim>
				</port>
			</output>
		</layer>
		<layer id="174" name="__module.transformer.encoder.layers.4.norm2/aten::layer_norm/MVN" type="MVN">
			<data execOrder="548" execTimeMcs="not_executed" originalLayersNames="__module.transformer.encoder.layers.4.norm2/aten::layer_norm/MVN,__module.transformer.encoder.layers.4.norm2/aten::layer_norm/Multiply_1,__module.transformer.encoder.layers.4.norm2/aten::layer_norm/Add" outputLayouts="bfyx" outputPrecisions="f16" primitiveType="mvn_gpu_bfyx_opt__f16" runtimePrecision="f16" />
			<input>
				<port id="0" precision="FP16">
					<dim>256</dim>
					<dim>1</dim>
					<dim>256</dim>
					<dim>1</dim>
				</port>
			</input>
			<output>
				<port id="1" precision="FP16">
					<dim>256</dim>
					<dim>1</dim>
					<dim>256</dim>
					<dim>1</dim>
				</port>
				<port id="2" precision="FP16">
					<dim>256</dim>
					<dim>1</dim>
					<dim>256</dim>
					<dim>1</dim>
				</port>
				<port id="3" precision="FP16">
					<dim>256</dim>
					<dim>1</dim>
					<dim>256</dim>
					<dim>1</dim>
				</port>
			</output>
		</layer>
		<layer id="175" name="__module.transformer.encoder.layers.5/aten::add/Add" type="Eltwise">
			<data execOrder="550" execTimeMcs="not_executed" originalLayersNames="__module.transformer.encoder.layers.5/aten::add/Add" outputLayouts="bfyx" outputPrecisions="f16" primitiveType="eltwise_simple_vload8__f16" runtimePrecision="f16" />
			<input>
				<port id="0" precision="FP16">
					<dim>256</dim>
					<dim>1</dim>
					<dim>256</dim>
					<dim>1</dim>
				</port>
			</input>
			<output>
				<port id="1" precision="FP16">
					<dim>256</dim>
					<dim>1</dim>
					<dim>256</dim>
					<dim>1</dim>
				</port>
				<port id="2" precision="FP16">
					<dim>256</dim>
					<dim>1</dim>
					<dim>256</dim>
					<dim>1</dim>
				</port>
			</output>
		</layer>
		<layer id="176" name="__module.transformer.encoder.layers.5.self_attn/aten::linear/MatMul" type="FullyConnected">
			<data execOrder="552" execTimeMcs="not_executed" originalLayersNames="__module.transformer.encoder.layers.5.self_attn/aten::linear/MatMul,__module.transformer.encoder.layers.5.self_attn/aten::linear/Add" outputLayouts="bfyx" outputPrecisions="f16" primitiveType="jit:gemm:any__f16" runtimePrecision="f16" />
			<input>
				<port id="0" precision="FP16">
					<dim>256</dim>
					<dim>1</dim>
					<dim>256</dim>
					<dim>1</dim>
				</port>
			</input>
			<output>
				<port id="1" precision="FP16">
					<dim>256</dim>
					<dim>1</dim>
					<dim>256</dim>
					<dim>1</dim>
				</port>
			</output>
		</layer>
		<layer id="177" name="__module.transformer.encoder.layers.5.self_attn/aten::view/Reshape" type="Reshape">
			<data execOrder="556" execTimeMcs="not_executed" originalLayersNames="__module.transformer.encoder.layers.5.self_attn/aten::view/Reshape" outputLayouts="bfyx" outputPrecisions="f16" primitiveType="undef" runtimePrecision="f16" />
			<input>
				<port id="0" precision="FP16">
					<dim>256</dim>
					<dim>1</dim>
					<dim>256</dim>
					<dim>1</dim>
				</port>
			</input>
			<output>
				<port id="1" precision="FP16">
					<dim>256</dim>
					<dim>8</dim>
					<dim>32</dim>
					<dim>1</dim>
				</port>
			</output>
		</layer>
		<layer id="178" name="__module.transformer.encoder.layers.5.self_attn/aten::transpose/Transpose" type="Permute">
			<data execOrder="558" execTimeMcs="not_executed" originalLayersNames="__module.transformer.encoder.layers.5.self_attn/aten::transpose/Transpose" outputLayouts="bfyx" outputPrecisions="f16" primitiveType="permute_ref__f16" runtimePrecision="f16" />
			<input>
				<port id="0" precision="FP16">
					<dim>256</dim>
					<dim>8</dim>
					<dim>32</dim>
					<dim>1</dim>
				</port>
			</input>
			<output>
				<port id="1" precision="FP16">
					<dim>8</dim>
					<dim>256</dim>
					<dim>32</dim>
					<dim>1</dim>
				</port>
			</output>
		</layer>
		<layer id="179" name="__module.transformer.encoder.layers.5.self_attn/aten::view/Reshape_1" type="Reshape">
			<data execOrder="561" execTimeMcs="not_executed" originalLayersNames="__module.transformer.encoder.layers.5.self_attn/aten::view/Reshape_1" outputLayouts="bfyx" outputPrecisions="f16" primitiveType="undef" runtimePrecision="f16" />
			<input>
				<port id="0" precision="FP16">
					<dim>8</dim>
					<dim>256</dim>
					<dim>32</dim>
					<dim>1</dim>
				</port>
			</input>
			<output>
				<port id="1" precision="FP16">
					<dim>1</dim>
					<dim>8</dim>
					<dim>256</dim>
					<dim>32</dim>
				</port>
			</output>
		</layer>
		<layer id="180" name="__module.transformer.encoder.layers.5.self_attn/aten::linear/MatMul_1" type="FullyConnected">
			<data execOrder="551" execTimeMcs="not_executed" originalLayersNames="__module.transformer.encoder.layers.5.self_attn/aten::linear/MatMul_1,__module.transformer.encoder.layers.5.self_attn/aten::linear/Add_1" outputLayouts="bfyx" outputPrecisions="f16" primitiveType="jit:gemm:any__f16" runtimePrecision="f16" />
			<input>
				<port id="0" precision="FP16">
					<dim>256</dim>
					<dim>1</dim>
					<dim>256</dim>
					<dim>1</dim>
				</port>
			</input>
			<output>
				<port id="1" precision="FP16">
					<dim>256</dim>
					<dim>1</dim>
					<dim>256</dim>
					<dim>1</dim>
				</port>
			</output>
		</layer>
		<layer id="181" name="__module.transformer.encoder.layers.5.self_attn/aten::view/Reshape_2" type="Reshape">
			<data execOrder="555" execTimeMcs="not_executed" originalLayersNames="__module.transformer.encoder.layers.5.self_attn/aten::view/Reshape_2" outputLayouts="bfyx" outputPrecisions="f16" primitiveType="undef" runtimePrecision="f16" />
			<input>
				<port id="0" precision="FP16">
					<dim>256</dim>
					<dim>1</dim>
					<dim>256</dim>
					<dim>1</dim>
				</port>
			</input>
			<output>
				<port id="1" precision="FP16">
					<dim>256</dim>
					<dim>8</dim>
					<dim>32</dim>
					<dim>1</dim>
				</port>
			</output>
		</layer>
		<layer id="182" name="__module.transformer.encoder.layers.5.self_attn/aten::transpose/Transpose_1" type="Permute">
			<data execOrder="557" execTimeMcs="not_executed" originalLayersNames="__module.transformer.encoder.layers.5.self_attn/aten::transpose/Transpose_1" outputLayouts="bfyx" outputPrecisions="f16" primitiveType="permute_ref__f16" runtimePrecision="f16" />
			<input>
				<port id="0" precision="FP16">
					<dim>256</dim>
					<dim>8</dim>
					<dim>32</dim>
					<dim>1</dim>
				</port>
			</input>
			<output>
				<port id="1" precision="FP16">
					<dim>8</dim>
					<dim>256</dim>
					<dim>32</dim>
					<dim>1</dim>
				</port>
			</output>
		</layer>
		<layer id="183" name="__module.transformer.encoder.layers.5.self_attn/aten::view/Reshape_3" type="Reshape">
			<data execOrder="560" execTimeMcs="not_executed" originalLayersNames="__module.transformer.encoder.layers.5.self_attn/aten::view/Reshape_3" outputLayouts="bfyx" outputPrecisions="f16" primitiveType="undef" runtimePrecision="f16" />
			<input>
				<port id="0" precision="FP16">
					<dim>8</dim>
					<dim>256</dim>
					<dim>32</dim>
					<dim>1</dim>
				</port>
			</input>
			<output>
				<port id="1" precision="FP16">
					<dim>1</dim>
					<dim>8</dim>
					<dim>256</dim>
					<dim>32</dim>
				</port>
			</output>
		</layer>
		<layer id="184" name="__module.transformer.encoder.layers.5.self_attn/aten::linear/MatMul_2" type="FullyConnected">
			<data execOrder="549" execTimeMcs="not_executed" originalLayersNames="__module.transformer.encoder.layers.5.self_attn/aten::linear/MatMul_2,__module.transformer.encoder.layers.5.self_attn/aten::linear/Add_2" outputLayouts="bfyx" outputPrecisions="f16" primitiveType="jit:gemm:any__f16" runtimePrecision="f16" />
			<input>
				<port id="0" precision="FP16">
					<dim>256</dim>
					<dim>1</dim>
					<dim>256</dim>
					<dim>1</dim>
				</port>
			</input>
			<output>
				<port id="1" precision="FP16">
					<dim>256</dim>
					<dim>1</dim>
					<dim>256</dim>
					<dim>1</dim>
				</port>
			</output>
		</layer>
		<layer id="185" name="__module.transformer.encoder.layers.5.self_attn/aten::view/Reshape_4" type="Reshape">
			<data execOrder="553" execTimeMcs="not_executed" originalLayersNames="__module.transformer.encoder.layers.5.self_attn/aten::view/Reshape_4" outputLayouts="bfyx" outputPrecisions="f16" primitiveType="undef" runtimePrecision="f16" />
			<input>
				<port id="0" precision="FP16">
					<dim>256</dim>
					<dim>1</dim>
					<dim>256</dim>
					<dim>1</dim>
				</port>
			</input>
			<output>
				<port id="1" precision="FP16">
					<dim>256</dim>
					<dim>8</dim>
					<dim>32</dim>
					<dim>1</dim>
				</port>
			</output>
		</layer>
		<layer id="186" name="__module.transformer.encoder.layers.5.self_attn/aten::transpose/Transpose_2" type="Permute">
			<data execOrder="554" execTimeMcs="not_executed" originalLayersNames="__module.transformer.encoder.layers.5.self_attn/aten::transpose/Transpose_2" outputLayouts="bfyx" outputPrecisions="f16" primitiveType="permute_ref__f16" runtimePrecision="f16" />
			<input>
				<port id="0" precision="FP16">
					<dim>256</dim>
					<dim>8</dim>
					<dim>32</dim>
					<dim>1</dim>
				</port>
			</input>
			<output>
				<port id="1" precision="FP16">
					<dim>8</dim>
					<dim>256</dim>
					<dim>32</dim>
					<dim>1</dim>
				</port>
			</output>
		</layer>
		<layer id="187" name="__module.transformer.encoder.layers.5.self_attn/aten::view/Reshape_5" type="Reshape">
			<data execOrder="559" execTimeMcs="not_executed" originalLayersNames="__module.transformer.encoder.layers.5.self_attn/aten::view/Reshape_5" outputLayouts="bfyx" outputPrecisions="f16" primitiveType="undef" runtimePrecision="f16" />
			<input>
				<port id="0" precision="FP16">
					<dim>8</dim>
					<dim>256</dim>
					<dim>32</dim>
					<dim>1</dim>
				</port>
			</input>
			<output>
				<port id="1" precision="FP16">
					<dim>1</dim>
					<dim>8</dim>
					<dim>256</dim>
					<dim>32</dim>
				</port>
			</output>
		</layer>
		<layer id="188" name="__module.transformer.encoder.layers.5.self_attn/aten::scaled_dot_product_attention/ScaledDotProductAttention" type="scaled_dot_product_attention">
			<data execOrder="562" execTimeMcs="not_executed" originalLayersNames="__module.transformer.encoder.layers.5.self_attn/aten::scaled_dot_product_attention/ScaledDotProductAttention" outputLayouts="bfyx" outputPrecisions="f16" primitiveType="sdpa_micro__f16" runtimePrecision="f16" />
			<input>
				<port id="0" precision="FP16">
					<dim>1</dim>
					<dim>8</dim>
					<dim>256</dim>
					<dim>32</dim>
				</port>
				<port id="1" precision="FP16">
					<dim>1</dim>
					<dim>8</dim>
					<dim>256</dim>
					<dim>32</dim>
				</port>
				<port id="2" precision="FP16">
					<dim>1</dim>
					<dim>8</dim>
					<dim>256</dim>
					<dim>32</dim>
				</port>
			</input>
			<output>
				<port id="3" precision="FP16">
					<dim>1</dim>
					<dim>8</dim>
					<dim>256</dim>
					<dim>32</dim>
				</port>
			</output>
		</layer>
		<layer id="189" name="__module.transformer.encoder.layers.5.self_attn/aten::permute/Transpose" type="Permute">
			<data execOrder="563" execTimeMcs="not_executed" originalLayersNames="__module.transformer.encoder.layers.5.self_attn/aten::permute/Transpose" outputLayouts="bfyx" outputPrecisions="f16" primitiveType="permute_ref__f16" runtimePrecision="f16" />
			<input>
				<port id="0" precision="FP16">
					<dim>1</dim>
					<dim>8</dim>
					<dim>256</dim>
					<dim>32</dim>
				</port>
			</input>
			<output>
				<port id="1" precision="FP16">
					<dim>256</dim>
					<dim>1</dim>
					<dim>8</dim>
					<dim>32</dim>
				</port>
			</output>
		</layer>
		<layer id="190" name="__module.transformer.encoder.layers.5.self_attn/aten::view/Reshape_8" type="Reshape">
			<data execOrder="564" execTimeMcs="not_executed" originalLayersNames="__module.transformer.encoder.layers.5.self_attn/aten::view/Reshape_8" outputLayouts="bfyx" outputPrecisions="f16" primitiveType="undef" runtimePrecision="f16" />
			<input>
				<port id="0" precision="FP16">
					<dim>256</dim>
					<dim>1</dim>
					<dim>8</dim>
					<dim>32</dim>
				</port>
			</input>
			<output>
				<port id="1" precision="FP16">
					<dim>256</dim>
					<dim>256</dim>
					<dim>1</dim>
					<dim>1</dim>
				</port>
			</output>
		</layer>
		<layer id="191" name="__module.transformer.encoder.layers.5.self_attn/aten::linear/MatMul_3" type="FullyConnected">
			<data execOrder="565" execTimeMcs="not_executed" originalLayersNames="__module.transformer.encoder.layers.5.self_attn/aten::linear/MatMul_3,__module.transformer.encoder.layers.5.self_attn/aten::linear/Add_3" outputLayouts="bfyx" outputPrecisions="f16" primitiveType="jit:gemm:any__f16" runtimePrecision="f16" />
			<input>
				<port id="0" precision="FP16">
					<dim>256</dim>
					<dim>256</dim>
					<dim>1</dim>
					<dim>1</dim>
				</port>
			</input>
			<output>
				<port id="1" precision="FP16">
					<dim>256</dim>
					<dim>256</dim>
					<dim>1</dim>
					<dim>1</dim>
				</port>
			</output>
		</layer>
		<layer id="192" name="__module.transformer.encoder.layers.5.self_attn/aten::view/Reshape_9" type="Reshape">
			<data execOrder="566" execTimeMcs="not_executed" originalLayersNames="__module.transformer.encoder.layers.5.self_attn/aten::view/Reshape_9" outputLayouts="bfyx" outputPrecisions="f16" primitiveType="undef" runtimePrecision="f16" />
			<input>
				<port id="0" precision="FP16">
					<dim>256</dim>
					<dim>256</dim>
					<dim>1</dim>
					<dim>1</dim>
				</port>
			</input>
			<output>
				<port id="1" precision="FP16">
					<dim>256</dim>
					<dim>1</dim>
					<dim>256</dim>
					<dim>1</dim>
				</port>
			</output>
		</layer>
		<layer id="193" name="__module.transformer.encoder.layers.5/aten::add/Add_1" type="Eltwise">
			<data execOrder="567" execTimeMcs="not_executed" originalLayersNames="__module.transformer.encoder.layers.5/aten::add/Add_1" outputLayouts="bfyx" outputPrecisions="f16" primitiveType="eltwise_simple_vload8__f16" runtimePrecision="f16" />
			<input>
				<port id="0" precision="FP16">
					<dim>256</dim>
					<dim>1</dim>
					<dim>256</dim>
					<dim>1</dim>
				</port>
				<port id="1" precision="FP16">
					<dim>256</dim>
					<dim>1</dim>
					<dim>256</dim>
					<dim>1</dim>
				</port>
			</input>
			<output>
				<port id="2" precision="FP16">
					<dim>256</dim>
					<dim>1</dim>
					<dim>256</dim>
					<dim>1</dim>
				</port>
			</output>
		</layer>
		<layer id="194" name="__module.transformer.encoder.layers.5.norm1/aten::layer_norm/MVN" type="MVN">
			<data execOrder="568" execTimeMcs="not_executed" originalLayersNames="__module.transformer.encoder.layers.5.norm1/aten::layer_norm/MVN,__module.transformer.encoder.layers.5.norm1/aten::layer_norm/Multiply_1,__module.transformer.encoder.layers.5.norm1/aten::layer_norm/Add" outputLayouts="bfyx" outputPrecisions="f16" primitiveType="mvn_gpu_bfyx_opt__f16" runtimePrecision="f16" />
			<input>
				<port id="0" precision="FP16">
					<dim>256</dim>
					<dim>1</dim>
					<dim>256</dim>
					<dim>1</dim>
				</port>
			</input>
			<output>
				<port id="1" precision="FP16">
					<dim>256</dim>
					<dim>1</dim>
					<dim>256</dim>
					<dim>1</dim>
				</port>
				<port id="2" precision="FP16">
					<dim>256</dim>
					<dim>1</dim>
					<dim>256</dim>
					<dim>1</dim>
				</port>
			</output>
		</layer>
		<layer id="195" name="__module.transformer.encoder.layers.5.linear1/aten::linear/MatMul" type="FullyConnected">
			<data execOrder="569" execTimeMcs="not_executed" originalLayersNames="__module.transformer.encoder.layers.5.linear1/aten::linear/MatMul,__module.transformer.encoder.layers.5.linear1/aten::linear/Add,__module.transformer.encoder.layers.5/aten::relu/Relu" outputLayouts="bfyx" outputPrecisions="f16" primitiveType="jit:gemm:any__f16" runtimePrecision="f16" />
			<input>
				<port id="0" precision="FP16">
					<dim>256</dim>
					<dim>1</dim>
					<dim>256</dim>
					<dim>1</dim>
				</port>
			</input>
			<output>
				<port id="1" precision="FP16">
					<dim>256</dim>
					<dim>1</dim>
					<dim>2048</dim>
					<dim>1</dim>
				</port>
			</output>
		</layer>
		<layer id="196" name="__module.transformer.encoder.layers.5.linear2/aten::linear/MatMul" type="FullyConnected">
			<data execOrder="570" execTimeMcs="not_executed" originalLayersNames="__module.transformer.encoder.layers.5.linear2/aten::linear/MatMul,__module.transformer.encoder.layers.5.linear2/aten::linear/Add,__module.transformer.encoder.layers.5/aten::add/Add_2" outputLayouts="bfyx" outputPrecisions="f16" primitiveType="jit:gemm:any__f16" runtimePrecision="f16" />
			<input>
				<port id="0" precision="FP16">
					<dim>256</dim>
					<dim>1</dim>
					<dim>2048</dim>
					<dim>1</dim>
				</port>
				<port id="1" precision="FP16">
					<dim>256</dim>
					<dim>1</dim>
					<dim>256</dim>
					<dim>1</dim>
				</port>
			</input>
			<output>
				<port id="2" precision="FP16">
					<dim>256</dim>
					<dim>1</dim>
					<dim>256</dim>
					<dim>1</dim>
				</port>
			</output>
		</layer>
…
			</input>
			<output>
				<port id="1" precision="FP16">
					<dim>100</dim>
					<dim>1</dim>
					<dim>256</dim>
					<dim>1</dim>
				</port>
			</output>
		</layer>
		<layer id="442" name="__module.transformer.decoder.norm/aten::layer_norm/MVN_5" type="MVN">
			<data execOrder="816" execTimeMcs="not_executed" originalLayersNames="__module.transformer.decoder.norm/aten::layer_norm/MVN_5,__module.transformer.decoder.norm/aten::layer_norm/Multiply_11,__module.transformer.decoder.norm/aten::layer_norm/Add_5" outputLayouts="bfyx" outputPrecisions="f16" primitiveType="mvn_gpu_bfyx_opt__f16" runtimePrecision="f16" />
			<input>
				<port id="0" precision="FP16">
					<dim>100</dim>
					<dim>1</dim>
					<dim>256</dim>
					<dim>1</dim>
				</port>
			</input>
			<output>
				<port id="1" precision="FP16">
					<dim>100</dim>
					<dim>1</dim>
					<dim>256</dim>
					<dim>1</dim>
				</port>
			</output>
		</layer>
		<layer id="443" name="Unsqueeze_18283" type="Reshape">
			<data execOrder="817" execTimeMcs="not_executed" originalLayersNames="Unsqueeze_18283" outputLayouts="bfyx" outputPrecisions="f16" primitiveType="undef" runtimePrecision="f16" />
			<input>
				<port id="0" precision="FP16">
					<dim>100</dim>
					<dim>1</dim>
					<dim>256</dim>
					<dim>1</dim>
				</port>
			</input>
			<output>
				<port id="1" precision="FP16">
					<dim>1</dim>
					<dim>100</dim>
					<dim>1</dim>
					<dim>256</dim>
				</port>
			</output>
		</layer>
		<layer id="444" name="__module.transformer.decoder/aten::stack" type="Concat">
			<data execOrder="818" execTimeMcs="not_executed" originalLayersNames="__module.transformer.decoder/aten::stack" outputLayouts="bfyx" outputPrecisions="f16" primitiveType="concatenation_gpu_simple_ref__f16" runtimePrecision="f16" />
			<input>
				<port id="0" precision="FP16">
					<dim>1</dim>
					<dim>100</dim>
					<dim>1</dim>
					<dim>256</dim>
				</port>
				<port id="1" precision="FP16">
					<dim>1</dim>
					<dim>100</dim>
					<dim>1</dim>
					<dim>256</dim>
				</port>
				<port id="2" precision="FP16">
					<dim>1</dim>
					<dim>100</dim>
					<dim>1</dim>
					<dim>256</dim>
				</port>
				<port id="3" precision="FP16">
					<dim>1</dim>
					<dim>100</dim>
					<dim>1</dim>
					<dim>256</dim>
				</port>
				<port id="4" precision="FP16">
					<dim>1</dim>
					<dim>100</dim>
					<dim>1</dim>
					<dim>256</dim>
				</port>
				<port id="5" precision="FP16">
					<dim>1</dim>
					<dim>100</dim>
					<dim>1</dim>
					<dim>256</dim>
				</port>
			</input>
			<output>
				<port id="6" precision="FP16">
					<dim>6</dim>
					<dim>100</dim>
					<dim>1</dim>
					<dim>256</dim>
				</port>
			</output>
		</layer>
		<layer id="445" name="__module.transformer/aten::transpose/Transpose" type="Reshape">
			<data execOrder="819" execTimeMcs="not_executed" originalLayersNames="__module.transformer/aten::transpose/Transpose" outputLayouts="bfyx" outputPrecisions="f16" primitiveType="undef" runtimePrecision="f16" />
			<input>
				<port id="0" precision="FP16">
					<dim>6</dim>
					<dim>100</dim>
					<dim>1</dim>
					<dim>256</dim>
				</port>
			</input>
			<output>
				<port id="1" precision="FP16">
					<dim>6</dim>
					<dim>1</dim>
					<dim>100</dim>
					<dim>256</dim>
				</port>
				<port id="2" precision="FP16">
					<dim>6</dim>
					<dim>1</dim>
					<dim>100</dim>
					<dim>256</dim>
				</port>
			</output>
		</layer>
		<layer id="446" name="__module.bbox_embed.layers.0/aten::linear/MatMul" type="FullyConnected">
			<data execOrder="821" execTimeMcs="not_executed" originalLayersNames="__module.bbox_embed.layers.0/aten::linear/MatMul" outputLayouts="bfyx" outputPrecisions="f16" primitiveType="fully_connected_gpu_bf_tiled__f16" runtimePrecision="f16" />
			<input>
				<port id="0" precision="FP16">
					<dim>6</dim>
					<dim>1</dim>
					<dim>100</dim>
					<dim>256</dim>
				</port>
			</input>
			<output>
				<port id="1" precision="FP16">
					<dim>6</dim>
					<dim>1</dim>
					<dim>100</dim>
					<dim>256</dim>
				</port>
			</output>
		</layer>
		<layer id="447" name="__module.bbox_embed.layers.0/aten::linear/Add" type="Eltwise">
			<data execOrder="823" execTimeMcs="not_executed" originalLayersNames="__module.bbox_embed.layers.0/aten::linear/Add,__module.bbox_embed/aten::relu/Relu" outputLayouts="bfyx" outputPrecisions="f16" primitiveType="generic_eltwise_ref__f16" runtimePrecision="f16" />
			<input>
				<port id="0" precision="FP16">
					<dim>6</dim>
					<dim>1</dim>
					<dim>100</dim>
					<dim>256</dim>
				</port>
			</input>
			<output>
				<port id="1" precision="FP16">
					<dim>6</dim>
					<dim>1</dim>
					<dim>100</dim>
					<dim>256</dim>
				</port>
			</output>
		</layer>
		<layer id="448" name="__module.bbox_embed.layers.1/aten::linear/MatMul" type="FullyConnected">
			<data execOrder="826" execTimeMcs="not_executed" originalLayersNames="__module.bbox_embed.layers.1/aten::linear/MatMul" outputLayouts="bfyx" outputPrecisions="f16" primitiveType="fully_connected_gpu_bf_tiled__f16" runtimePrecision="f16" />
			<input>
				<port id="0" precision="FP16">
					<dim>6</dim>
					<dim>1</dim>
					<dim>100</dim>
					<dim>256</dim>
				</port>
			</input>
			<output>
				<port id="1" precision="FP16">
					<dim>6</dim>
					<dim>1</dim>
					<dim>100</dim>
					<dim>256</dim>
				</port>
			</output>
		</layer>
		<layer id="449" name="__module.bbox_embed.layers.1/aten::linear/Add" type="Eltwise">
			<data execOrder="828" execTimeMcs="not_executed" originalLayersNames="__module.bbox_embed.layers.1/aten::linear/Add,__module.bbox_embed/aten::relu/Relu_1" outputLayouts="bfyx" outputPrecisions="f16" primitiveType="generic_eltwise_ref__f16" runtimePrecision="f16" />
			<input>
				<port id="0" precision="FP16">
					<dim>6</dim>
					<dim>1</dim>
					<dim>100</dim>
					<dim>256</dim>
				</port>
			</input>
			<output>
				<port id="1" precision="FP16">
					<dim>6</dim>
					<dim>1</dim>
					<dim>100</dim>
					<dim>256</dim>
				</port>
			</output>
		</layer>
		<layer id="450" name="__module.bbox_embed.layers.2/aten::linear/MatMul" type="FullyConnected">
			<data execOrder="829" execTimeMcs="not_executed" originalLayersNames="__module.bbox_embed.layers.2/aten::linear/MatMul" outputLayouts="bfyx" outputPrecisions="f16" primitiveType="fully_connected_gpu_bf_tiled__f16" runtimePrecision="f16" />
			<input>
				<port id="0" precision="FP16">
					<dim>6</dim>
					<dim>1</dim>
					<dim>100</dim>
					<dim>256</dim>
				</port>
			</input>
			<output>
				<port id="1" precision="FP16">
					<dim>6</dim>
					<dim>1</dim>
					<dim>100</dim>
					<dim>4</dim>
				</port>
			</output>
		</layer>
		<layer id="451" name="__module.bbox_embed.layers.2/aten::linear/Add" type="Eltwise">
			<data execOrder="830" execTimeMcs="not_executed" originalLayersNames="__module.bbox_embed.layers.2/aten::linear/Add,aten::sigmoid/Sigmoid" outputLayouts="bfyx" outputPrecisions="f16" primitiveType="generic_eltwise_ref__f16" runtimePrecision="f16" />
			<input>
				<port id="0" precision="FP16">
					<dim>6</dim>
					<dim>1</dim>
					<dim>100</dim>
					<dim>4</dim>
				</port>
			</input>
			<output>
				<port id="1" precision="FP16">
					<dim>6</dim>
					<dim>1</dim>
					<dim>100</dim>
					<dim>4</dim>
				</port>
			</output>
		</layer>
		<layer id="452" name="Gather_41481_reshape_output/crop_18446744073709551615" type="Crop">
			<data execOrder="831" execTimeMcs="not_executed" originalLayersNames="Gather_41481" outputLayouts="bfyx" outputPrecisions="f16" primitiveType="generic_eltwise_ref__f16" runtimePrecision="f16" />
			<input>
				<port id="0" precision="FP16">
					<dim>6</dim>
					<dim>1</dim>
					<dim>100</dim>
					<dim>4</dim>
				</port>
			</input>
			<output>
				<port id="1" precision="FP16">
					<dim>1</dim>
					<dim>1</dim>
					<dim>100</dim>
					<dim>4</dim>
				</port>
			</output>
		</layer>
		<layer id="453" name="Gather_41481" type="Reshape">
			<data execOrder="832" execTimeMcs="not_executed" originalLayersNames="Gather_41481" outputLayouts="bfyx" outputPrecisions="f16" primitiveType="undef" runtimePrecision="f16" />
			<input>
				<port id="0" precision="FP16">
					<dim>1</dim>
					<dim>1</dim>
					<dim>100</dim>
					<dim>4</dim>
				</port>
			</input>
			<output>
				<port id="1" precision="FP16">
					<dim>1</dim>
					<dim>100</dim>
					<dim>4</dim>
					<dim>1</dim>
				</port>
			</output>
		</layer>
		<layer id="454" name="Result_69858" type="Reorder">
			<data execOrder="833" execTimeMcs="not_executed" originalLayersNames="Result_69858" outputLayouts="bfyx" outputPrecisions="f32" primitiveType="reorder_data_fast_b1__f32" runtimePrecision="f32" />
			<input>
				<port id="0" precision="FP16">
					<dim>1</dim>
					<dim>100</dim>
					<dim>4</dim>
					<dim>1</dim>
				</port>
			</input>
			<output>
				<port id="1" precision="FP32">
					<dim>1</dim>
					<dim>100</dim>
					<dim>4</dim>
					<dim>1</dim>
				</port>
			</output>
		</layer>
		<layer id="456" name="__module.class_embed/aten::linear/MatMul" type="FullyConnected">
			<data execOrder="820" execTimeMcs="not_executed" originalLayersNames="__module.class_embed/aten::linear/MatMul" outputLayouts="bfyx" outputPrecisions="f16" primitiveType="fully_connected_gpu_bf_tiled__f16" runtimePrecision="f16" />
			<input>
				<port id="0" precision="FP16">
					<dim>6</dim>
					<dim>1</dim>
					<dim>100</dim>
					<dim>256</dim>
				</port>
			</input>
			<output>
				<port id="1" precision="FP16">
					<dim>6</dim>
					<dim>1</dim>
					<dim>100</dim>
					<dim>92</dim>
				</port>
			</output>
		</layer>
		<layer id="457" name="__module.class_embed/aten::linear/Add" type="Eltwise">
			<data execOrder="822" execTimeMcs="not_executed" originalLayersNames="__module.class_embed/aten::linear/Add" outputLayouts="bfyx" outputPrecisions="f16" primitiveType="generic_eltwise_ref__f16" runtimePrecision="f16" />
			<input>
				<port id="0" precision="FP16">
					<dim>6</dim>
					<dim>1</dim>
					<dim>100</dim>
					<dim>92</dim>
				</port>
			</input>
			<output>
				<port id="1" precision="FP16">
					<dim>6</dim>
					<dim>1</dim>
					<dim>100</dim>
					<dim>92</dim>
				</port>
			</output>
		</layer>
		<layer id="458" name="Gather_41491_reshape_output/crop_18446744073709551615" type="Crop">
			<data execOrder="824" execTimeMcs="not_executed" originalLayersNames="Gather_41491" outputLayouts="bfyx" outputPrecisions="f16" primitiveType="generic_eltwise_ref__f16" runtimePrecision="f16" />
			<input>
				<port id="0" precision="FP16">
					<dim>6</dim>
					<dim>1</dim>
					<dim>100</dim>
					<dim>92</dim>
				</port>
			</input>
			<output>
				<port id="1" precision="FP16">
					<dim>1</dim>
					<dim>1</dim>
					<dim>100</dim>
					<dim>92</dim>
				</port>
			</output>
		</layer>
		<layer id="459" name="Gather_41491" type="Reshape">
			<data execOrder="825" execTimeMcs="not_executed" originalLayersNames="Gather_41491" outputLayouts="bfyx" outputPrecisions="f16" primitiveType="undef" runtimePrecision="f16" />
			<input>
				<port id="0" precision="FP16">
					<dim>1</dim>
					<dim>1</dim>
					<dim>100</dim>
					<dim>92</dim>
				</port>
			</input>
			<output>
				<port id="1" precision="FP16">
					<dim>1</dim>
					<dim>100</dim>
					<dim>92</dim>
					<dim>1</dim>
				</port>
			</output>
		</layer>
		<layer id="460" name="Result_69857" type="Reorder">
			<data execOrder="827" execTimeMcs="not_executed" originalLayersNames="Result_69857" outputLayouts="bfyx" outputPrecisions="f32" primitiveType="reorder_data_fast_b1__f32" runtimePrecision="f32" />
			<input>
				<port id="0" precision="FP16">
					<dim>1</dim>
					<dim>100</dim>
					<dim>92</dim>
					<dim>1</dim>
				</port>
			</input>
			<output>
				<port id="1" precision="FP32">
					<dim>1</dim>
					<dim>100</dim>
					<dim>92</dim>
					<dim>1</dim>
				</port>
			</output>
		</layer>
		<layer id="461" name="Result_69857_result" type="Result">
			<data execOrder="827" execTimeMcs="not_executed" originalLayersNames="Result_69857" outputLayouts="bfyx" outputPrecisions="f32" primitiveType="reorder_data_fast_b1__f32" runtimePrecision="f32" />
			<input>
				<port id="0" precision="FP32">
					<dim>1</dim>
					<dim>100</dim>
					<dim>92</dim>
					<dim>1</dim>
				</port>
			</input>
		</layer>
		<layer id="455" name="Result_69858_result" type="Result">
			<data execOrder="833" execTimeMcs="not_executed" originalLayersNames="Result_69858" outputLayouts="bfyx" outputPrecisions="f32" primitiveType="reorder_data_fast_b1__f32" runtimePrecision="f32" />
			<input>
				<port id="0" precision="FP32">
					<dim>1</dim>
					<dim>100</dim>
					<dim>4</dim>
					<dim>1</dim>
				</port>
			</input>
		</layer>
	</layers>
	<edges>
		<edge from-layer="0" from-port="0" to-layer="1" to-port="0" />
		<edge from-layer="1" from-port="1" to-layer="2" to-port="0" />
		<edge from-layer="2" from-port="1" to-layer="3" to-port="0" />
		<edge from-layer="3" from-port="1" to-layer="4" to-port="0" />
		<edge from-layer="3" from-port="1" to-layer="6" to-port="0" />
		<edge from-layer="4" from-port="1" to-layer="5" to-port="0" />
		<edge from-layer="5" from-port="1" to-layer="7" to-port="0" />
		<edge from-layer="6" from-port="1" to-layer="7" to-port="1" />
		<edge from-layer="7" from-port="2" to-layer="8" to-port="0" />
		<edge from-layer="7" from-port="2" to-layer="10" to-port="1" />
		<edge from-layer="8" from-port="1" to-layer="9" to-port="0" />
		<edge from-layer="9" from-port="1" to-layer="10" to-port="0" />
		<edge from-layer="10" from-port="2" to-layer="11" to-port="0" />
		<edge from-layer="10" from-port="2" to-layer="13" to-port="1" />
		<edge from-layer="11" from-port="1" to-layer="12" to-port="0" />
		<edge from-layer="12" from-port="1" to-layer="13" to-port="0" />
		<edge from-layer="13" from-port="2" to-layer="14" to-port="0" />
		<edge from-layer="13" from-port="2" to-layer="16" to-port="0" />
		<edge from-layer="14" from-port="1" to-layer="15" to-port="0" />
		<edge from-layer="15" from-port="1" to-layer="17" to-port="0" />
		<edge from-layer="16" from-port="1" to-layer="17" to-port="1" />
		<edge from-layer="17" from-port="2" to-layer="18" to-port="0" />
		<edge from-layer="17" from-port="2" to-layer="20" to-port="1" />
		<edge from-layer="18" from-port="1" to-layer="19" to-port="0" />
		<edge from-layer="19" from-port="1" to-layer="20" to-port="0" />
		<edge from-layer="20" from-port="2" to-layer="21" to-port="0" />
		<edge from-layer="20" from-port="2" to-layer="23" to-port="1" />
		<edge from-layer="21" from-port="1" to-layer="22" to-port="0" />
		<edge from-layer="22" from-port="1" to-layer="23" to-port="0" />
		<edge from-layer="23" from-port="2" to-layer="24" to-port="0" />
		<edge from-layer="23" from-port="2" to-layer="26" to-port="1" />
		<edge from-layer="24" from-port="1" to-layer="25" to-port="0" />
		<edge from-layer="25" from-port="1" to-layer="26" to-port="0" />
		<edge from-layer="26" from-port="2" to-layer="27" to-port="0" />
		<edge from-layer="26" from-port="2" to-layer="29" to-port="0" />
		<edge from-layer="27" from-port="1" to-layer="28" to-port="0" />
		<edge from-layer="28" from-port="1" to-layer="30" to-port="0" />
		<edge from-layer="29" from-port="1" to-layer="30" to-port="1" />
		<edge from-layer="30" from-port="2" to-layer="33" to-port="1" />
		<edge from-layer="30" from-port="2" to-layer="31" to-port="0" />
		<edge from-layer="31" from-port="1" to-layer="32" to-port="0" />
		<edge from-layer="32" from-port="1" to-layer="33" to-port="0" />
		<edge from-layer="33" from-port="2" to-layer="34" to-port="0" />
		<edge from-layer="33" from-port="2" to-layer="36" to-port="1" />
		<edge from-layer="34" from-port="1" to-layer="35" to-port="0" />
		<edge from-layer="35" from-port="1" to-layer="36" to-port="0" />
		<edge from-layer="36" from-port="2" to-layer="37" to-port="0" />
		<edge from-layer="36" from-port="2" to-layer="39" to-port="1" />
		<edge from-layer="37" from-port="1" to-layer="38" to-port="0" />
		<edge from-layer="38" from-port="1" to-layer="39" to-port="0" />
		<edge from-layer="39" from-port="2" to-layer="40" to-port="0" />
		<edge from-layer="39" from-port="2" to-layer="42" to-port="1" />
		<edge from-layer="40" from-port="1" to-layer="41" to-port="0" />
		<edge from-layer="41" from-port="1" to-layer="42" to-port="0" />
		<edge from-layer="42" from-port="2" to-layer="43" to-port="0" />
		<edge from-layer="42" from-port="2" to-layer="45" to-port="1" />
		<edge from-layer="43" from-port="1" to-layer="44" to-port="0" />
		<edge from-layer="44" from-port="1" to-layer="45" to-port="0" />
		<edge from-layer="45" from-port="2" to-layer="46" to-port="0" />
		<edge from-layer="45" from-port="2" to-layer="48" to-port="0" />
		<edge from-layer="46" from-port="1" to-layer="47" to-port="0" />
		<edge from-layer="47" from-port="1" to-layer="49" to-port="0" />
		<edge from-layer="48" from-port="1" to-layer="49" to-port="1" />
		<edge from-layer="49" from-port="2" to-layer="50" to-port="0" />
		<edge from-layer="49" from-port="2" to-layer="52" to-port="1" />
		<edge from-layer="50" from-port="1" to-layer="51" to-port="0" />
		<edge from-layer="51" from-port="1" to-layer="52" to-port="0" />
		<edge from-layer="52" from-port="2" to-layer="53" to-port="0" />
		<edge from-layer="52" from-port="2" to-layer="55" to-port="1" />
		<edge from-layer="53" from-port="1" to-layer="54" to-port="0" />
		<edge from-layer="54" from-port="1" to-layer="55" to-port="0" />
		<edge from-layer="55" from-port="2" to-layer="56" to-port="0" />
		<edge from-layer="56" from-port="1" to-layer="57" to-port="0" />
		<edge from-layer="57" from-port="1" to-layer="58" to-port="0" />
		<edge from-layer="58" from-port="1" to-layer="59" to-port="0" />
		<edge from-layer="59" from-port="1" to-layer="60" to-port="0" />
		<edge from-layer="59" from-port="1" to-layer="78" to-port="0" />
		<edge from-layer="59" from-port="1" to-layer="69" to-port="0" />
		<edge from-layer="60" from-port="1" to-layer="65" to-port="0" />
		<edge from-layer="60" from-port="1" to-layer="61" to-port="0" />
		<edge from-layer="61" from-port="1" to-layer="62" to-port="0" />
		<edge from-layer="62" from-port="1" to-layer="63" to-port="0" />
		<edge from-layer="63" from-port="1" to-layer="64" to-port="0" />
		<edge from-layer="64" from-port="1" to-layer="73" to-port="0" />
		<edge from-layer="65" from-port="1" to-layer="66" to-port="0" />
		<edge from-layer="66" from-port="1" to-layer="67" to-port="0" />
		<edge from-layer="67" from-port="1" to-layer="68" to-port="0" />
		<edge from-layer="68" from-port="1" to-layer="73" to-port="1" />
		<edge from-layer="69" from-port="1" to-layer="70" to-port="0" />
		<edge from-layer="70" from-port="1" to-layer="71" to-port="0" />
		<edge from-layer="71" from-port="1" to-layer="72" to-port="0" />
		<edge from-layer="72" from-port="1" to-layer="73" to-port="2" />
		<edge from-layer="73" from-port="3" to-layer="74" to-port="0" />
		<edge from-layer="74" from-port="1" to-layer="75" to-port="0" />
		<edge from-layer="75" from-port="1" to-layer="76" to-port="0" />
		<edge from-layer="76" from-port="1" to-layer="77" to-port="0" />
		<edge from-layer="77" from-port="1" to-layer="78" to-port="1" />
		<edge from-layer="78" from-port="2" to-layer="79" to-port="0" />
		<edge from-layer="79" from-port="1" to-layer="80" to-port="0" />
		<edge from-layer="79" from-port="1" to-layer="81" to-port="1" />
		<edge from-layer="80" from-port="1" to-layer="81" to-port="0" />
		<edge from-layer="81" from-port="2" to-layer="82" to-port="0" />
		<edge from-layer="82" from-port="1" to-layer="83" to-port="0" />
		<edge from-layer="82" from-port="1" to-layer="101" to-port="0" />
		<edge from-layer="82" from-port="1" to-layer="92" to-port="0" />
		<edge from-layer="83" from-port="1" to-layer="88" to-port="0" />
		<edge from-layer="83" from-port="1" to-layer="84" to-port="0" />
		<edge from-layer="84" from-port="1" to-layer="85" to-port="0" />
		<edge from-layer="85" from-port="1" to-layer="86" to-port="0" />
		<edge from-layer="86" from-port="1" to-layer="87" to-port="0" />
		<edge from-layer="87" from-port="1" to-layer="96" to-port="0" />
		<edge from-layer="88" from-port="1" to-layer="89" to-port="0" />
		<edge from-layer="89" from-port="1" to-layer="90" to-port="0" />
		<edge from-layer="90" from-port="1" to-layer="91" to-port="0" />
		<edge from-layer="91" from-port="1" to-layer="96" to-port="1" />
		<edge from-layer="92" from-port="1" to-layer="93" to-port="0" />
		<edge from-layer="93" from-port="1" to-layer="94" to-port="0" />
		<edge from-layer="94" from-port="1" to-layer="95" to-port="0" />
		<edge from-layer="95" from-port="1" to-layer="96" to-port="2" />
		<edge from-layer="96" from-port="3" to-layer="97" to-port="0" />
		<edge from-layer="97" from-port="1" to-layer="98" to-port="0" />
		<edge from-layer="98" from-port="1" to-layer="99" to-port="0" />
		<edge from-layer="99" from-port="1" to-layer="100" to-port="0" />
		<edge from-layer="100" from-port="1" to-layer="101" to-port="1" />
		<edge from-layer="101" from-port="2" to-layer="102" to-port="0" />
		<edge from-layer="102" from-port="1" to-layer="104" to-port="1" />
		<edge from-layer="102" from-port="1" to-layer="103" to-port="0" />
		<edge from-layer="103" from-port="1" to-layer="104" to-port="0" />
		<edge from-layer="104" from-port="2" to-layer="105" to-port="0" />
		<edge from-layer="105" from-port="1" to-layer="106" to-port="0" />
		<edge from-layer="105" from-port="1" to-layer="124" to-port="0" />
		<edge from-layer="105" from-port="1" to-layer="115" to-port="0" />
		<edge from-layer="106" from-port="1" to-layer="107" to-port="0" />
		<edge from-layer="106" from-port="1" to-layer="111" to-port="0" />
		<edge from-layer="107" from-port="1" to-layer="108" to-port="0" />
		<edge from-layer="108" from-port="1" to-layer="109" to-port="0" />
		<edge from-layer="109" from-port="1" to-layer="110" to-port="0" />
		<edge from-layer="110" from-port="1" to-layer="119" to-port="0" />
		<edge from-layer="111" from-port="1" to-layer="112" to-port="0" />
		<edge from-layer="112" from-port="1" to-layer="113" to-port="0" />
		<edge from-layer="113" from-port="1" to-layer="114" to-port="0" />
		<edge from-layer="114" from-port="1" to-layer="119" to-port="1" />
		<edge from-layer="115" from-port="1" to-layer="116" to-port="0" />
		<edge from-layer="116" from-port="1" to-layer="117" to-port="0" />
		<edge from-layer="117" from-port="1" to-layer="118" to-port="0" />
		<edge from-layer="118" from-port="1" to-layer="119" to-port="2" />
		<edge from-layer="119" from-port="3" to-layer="120" to-port="0" />
		<edge from-layer="120" from-port="1" to-layer="121" to-port="0" />
		<edge from-layer="121" from-port="1" to-layer="122" to-port="0" />
		<edge from-layer="122" from-port="1" to-layer="123" to-port="0" />
		<edge from-layer="123" from-port="1" to-layer="124" to-port="1" />
		<edge from-layer="124" from-port="2" to-layer="125" to-port="0" />
		<edge from-layer="125" from-port="1" to-layer="126" to-port="0" />
		<edge from-layer="125" from-port="1" to-layer="127" to-port="1" />
		<edge from-layer="126" from-port="1" to-layer="127" to-port="0" />
		<edge from-layer="127" from-port="2" to-layer="128" to-port="0" />
		<edge from-layer="128" from-port="1" to-layer="129" to-port="0" />
		<edge from-layer="128" from-port="1" to-layer="147" to-port="0" />
		<edge from-layer="128" from-port="1" to-layer="138" to-port="0" />
		<edge from-layer="129" from-port="1" to-layer="130" to-port="0" />
		<edge from-layer="129" from-port="1" to-layer="134" to-port="0" />
		<edge from-layer="130" from-port="1" to-layer="131" to-port="0" />
		<edge from-layer="131" from-port="1" to-layer="132" to-port="0" />
		<edge from-layer="132" from-port="1" to-layer="133" to-port="0" />
		<edge from-layer="133" from-port="1" to-layer="142" to-port="0" />
		<edge from-layer="134" from-port="1" to-layer="135" to-port="0" />
		<edge from-layer="135" from-port="1" to-layer="136" to-port="0" />
		<edge from-layer="136" from-port="1" to-layer="137" to-port="0" />
		<edge from-layer="137" from-port="1" to-layer="142" to-port="1" />
		<edge from-layer="138" from-port="1" to-layer="139" to-port="0" />
		<edge from-layer="139" from-port="1" to-layer="140" to-port="0" />
		<edge from-layer="140" from-port="1" to-layer="141" to-port="0" />
		<edge from-layer="141" from-port="1" to-layer="142" to-port="2" />
		<edge from-layer="142" from-port="3" to-layer="143" to-port="0" />
		<edge from-layer="143" from-port="1" to-layer="144" to-port="0" />
		<edge from-layer="144" from-port="1" to-layer="145" to-port="0" />
		<edge from-layer="145" from-port="1" to-layer="146" to-port="0" />
		<edge from-layer="146" from-port="1" to-layer="147" to-port="1" />
		<edge from-layer="147" from-port="2" to-layer="148" to-port="0" />
		<edge from-layer="148" from-port="1" to-layer="149" to-port="0" />
		<edge from-layer="148" from-port="1" to-layer="150" to-port="1" />
		<edge from-layer="149" from-port="1" to-layer="150" to-port="0" />
		<edge from-layer="150" from-port="2" to-layer="151" to-port="0" />
		<edge from-layer="151" from-port="1" to-layer="152" to-port="0" />
		<edge from-layer="151" from-port="1" to-layer="170" to-port="0" />
		<edge from-layer="151" from-port="1" to-layer="161" to-port="0" />
		<edge from-layer="152" from-port="1" to-layer="153" to-port="0" />
		<edge from-layer="152" from-port="1" to-layer="157" to-port="0" />
		<edge from-layer="153" from-port="1" to-layer="154" to-port="0" />
		<edge from-layer="154" from-port="1" to-layer="155" to-port="0" />
		<edge from-layer="155" from-port="1" to-layer="156" to-port="0" />
		<edge from-layer="156" from-port="1" to-layer="165" to-port="0" />
		<edge from-layer="157" from-port="1" to-layer="158" to-port="0" />
		<edge from-layer="158" from-port="1" to-layer="159" to-port="0" />
		<edge from-layer="159" from-port="1" to-layer="160" to-port="0" />
		<edge from-layer="160" from-port="1" to-layer="165" to-port="1" />
		<edge from-layer="161" from-port="1" to-layer="162" to-port="0" />
		<edge from-layer="162" from-port="1" to-layer="163" to-port="0" />
		<edge from-layer="163" from-port="1" to-layer="164" to-port="0" />
		<edge from-layer="164" from-port="1" to-layer="165" to-port="2" />
		<edge from-layer="165" from-port="3" to-layer="166" to-port="0" />
		<edge from-layer="166" from-port="1" to-layer="167" to-port="0" />
		<edge from-layer="167" from-port="1" to-layer="168" to-port="0" />
		<edge from-layer="168" from-port="1" to-layer="169" to-port="0" />
		<edge from-layer="169" from-port="1" to-layer="170" to-port="1" />
		<edge from-layer="170" from-port="2" to-layer="171" to-port="0" />
		<edge from-layer="171" from-port="1" to-layer="172" to-port="0" />
		<edge from-layer="171" from-port="1" to-layer="173" to-port="1" />
		<edge from-layer="172" from-port="1" to-layer="173" to-port="0" />
		<edge from-layer="173" from-port="2" to-layer="174" to-port="0" />
		<edge from-layer="174" from-port="1" to-layer="193" to-port="0" />
		<edge from-layer="174" from-port="1" to-layer="184" to-port="0" />
		<edge from-layer="174" from-port="1" to-layer="175" to-port="0" />
		<edge from-layer="175" from-port="1" to-layer="180" to-port="0" />
		<edge from-layer="175" from-port="1" to-layer="176" to-port="0" />
		<edge from-layer="176" from-port="1" to-layer="177" to-port="0" />
		<edge from-layer="177" from-port="1" to-layer="178" to-port="0" />
		<edge from-layer="178" from-port="1" to-layer="179" to-port="0" />
		<edge from-layer="179" from-port="1" to-layer="188" to-port="0" />
		<edge from-layer="180" from-port="1" to-layer="181" to-port="0" />
		<edge from-layer="181" from-port="1" to-layer="182" to-port="0" />
		<edge from-layer="182" from-port="1" to-layer="183" to-port="0" />
		<edge from-layer="183" from-port="1" to-layer="188" to-port="1" />
		<edge from-layer="184" from-port="1" to-layer="185" to-port="0" />
		<edge from-layer="185" from-port="1" to-layer="186" to-port="0" />
		<edge from-layer="186" from-port="1" to-layer="187" to-port="0" />
		<edge from-layer="187" from-port="1" to-layer="188" to-port="2" />
		<edge from-layer="188" from-port="3" to-layer="189" to-port="0" />
		<edge from-layer="189" from-port="1" to-layer="190" to-port="0" />
		<edge from-layer="190" from-port="1" to-layer="191" to-port="0" />
		<edge from-layer="191" from-port="1" to-layer="192" to-port="0" />
		<edge from-layer="192" from-port="1" to-layer="193" to-port="1" />
		<edge from-layer="193" from-port="2" to-layer="194" to-port="0" />
		<edge from-layer="194" from-port="1" to-layer="195" to-port="0" />
		<edge from-layer="194" from-port="1" to-layer="196" to-port="1" />
		<edge from-layer="195" from-port="1" to-layer="196" to-port="0" />
		<edge from-layer="196" from-port="2" to-layer="197" to-port="0" />
		<edge from-layer="197" from-port="1" to-layer="198" to-port="0" />
		<edge from-layer="197" from-port="1" to-layer="428" to-port="0" />
		<edge from-layer="197" from-port="1" to-layer="383" to-port="0" />
		<edge from-layer="197" from-port="1" to-layer="338" to-port="0" />
		<edge from-layer="197" from-port="1" to-layer="203" to-port="0" />
		<edge from-layer="197" from-port="1" to-layer="293" to-port="0" />
		<edge from-layer="197" from-port="1" to-layer="248" to-port="0" />
		<edge from-layer="198" from-port="1" to-layer="334" to-port="0" />
		<edge from-layer="198" from-port="1" to-layer="379" to-port="0" />
		<edge from-layer="198" from-port="1" to-layer="289" to-port="0" />
		<edge from-layer="198" from-port="1" to-layer="424" to-port="0" />
		<edge from-layer="198" from-port="1" to-layer="244" to-port="0" />
		<edge from-layer="198" from-port="1" to-layer="199" to-port="0" />
		<edge from-layer="199" from-port="1" to-layer="200" to-port="0" />
		<edge from-layer="200" from-port="1" to-layer="201" to-port="0" />
		<edge from-layer="201" from-port="1" to-layer="202" to-port="0" />
		<edge from-layer="202" from-port="1" to-layer="207" to-port="0" />
		<edge from-layer="203" from-port="1" to-layer="204" to-port="0" />
		<edge from-layer="204" from-port="1" to-layer="205" to-port="0" />
		<edge from-layer="205" from-port="1" to-layer="206" to-port="0" />
		<edge from-layer="206" from-port="1" to-layer="207" to-port="1" />
		<edge from-layer="207" from-port="2" to-layer="208" to-port="0" />
		<edge from-layer="208" from-port="1" to-layer="209" to-port="0" />
		<edge from-layer="209" from-port="1" to-layer="210" to-port="0" />
		<edge from-layer="210" from-port="1" to-layer="211" to-port="0" />
		<edge from-layer="211" from-port="1" to-layer="212" to-port="0" />
		<edge from-layer="212" from-port="1" to-layer="213" to-port="0" />
		<edge from-layer="213" from-port="1" to-layer="215" to-port="1" />
		<edge from-layer="213" from-port="1" to-layer="214" to-port="0" />
		<edge from-layer="214" from-port="1" to-layer="215" to-port="0" />
		<edge from-layer="215" from-port="2" to-layer="216" to-port="0" />
		<edge from-layer="216" from-port="1" to-layer="237" to-port="0" />
		<edge from-layer="216" from-port="1" to-layer="219" to-port="0" />
		<edge from-layer="216" from-port="1" to-layer="228" to-port="0" />
		<edge from-layer="216" from-port="1" to-layer="217" to-port="0" />
		<edge from-layer="217" from-port="1" to-layer="218" to-port="0" />
		<edge from-layer="218" from-port="1" to-layer="444" to-port="0" />
		<edge from-layer="219" from-port="1" to-layer="220" to-port="0" />
		<edge from-layer="219" from-port="1" to-layer="224" to-port="0" />
		<edge from-layer="220" from-port="1" to-layer="221" to-port="0" />
		<edge from-layer="221" from-port="1" to-layer="222" to-port="0" />
		<edge from-layer="222" from-port="1" to-layer="223" to-port="0" />
		<edge from-layer="223" from-port="1" to-layer="232" to-port="0" />
		<edge from-layer="224" from-port="1" to-layer="225" to-port="0" />
		<edge from-layer="225" from-port="1" to-layer="226" to-port="0" />
		<edge from-layer="226" from-port="1" to-layer="227" to-port="0" />
		<edge from-layer="227" from-port="1" to-layer="232" to-port="1" />
		<edge from-layer="228" from-port="1" to-layer="229" to-port="0" />
		<edge from-layer="229" from-port="1" to-layer="230" to-port="0" />
		<edge from-layer="230" from-port="1" to-layer="231" to-port="0" />
		<edge from-layer="231" from-port="1" to-layer="232" to-port="2" />
		<edge from-layer="232" from-port="3" to-layer="233" to-port="0" />
		<edge from-layer="233" from-port="1" to-layer="234" to-port="0" />
		<edge from-layer="234" from-port="1" to-layer="235" to-port="0" />
		<edge from-layer="235" from-port="1" to-layer="236" to-port="0" />
		<edge from-layer="236" from-port="1" to-layer="237" to-port="1" />
		<edge from-layer="237" from-port="2" to-layer="238" to-port="0" />
		<edge from-layer="238" from-port="1" to-layer="239" to-port="0" />
		<edge from-layer="238" from-port="1" to-layer="257" to-port="0" />
		<edge from-layer="239" from-port="1" to-layer="240" to-port="0" />
		<edge from-layer="240" from-port="1" to-layer="241" to-port="0" />
		<edge from-layer="241" from-port="1" to-layer="242" to-port="0" />
		<edge from-layer="242" from-port="1" to-layer="243" to-port="0" />
		<edge from-layer="243" from-port="1" to-layer="252" to-port="0" />
		<edge from-layer="244" from-port="1" to-layer="245" to-port="0" />
		<edge from-layer="245" from-port="1" to-layer="246" to-port="0" />
		<edge from-layer="246" from-port="1" to-layer="247" to-port="0" />
		<edge from-layer="247" from-port="1" to-layer="252" to-port="1" />
		<edge from-layer="248" from-port="1" to-layer="249" to-port="0" />
		<edge from-layer="249" from-port="1" to-layer="250" to-port="0" />
		<edge from-layer="250" from-port="1" to-layer="251" to-port="0" />
		<edge from-layer="251" from-port="1" to-layer="252" to-port="2" />
		<edge from-layer="252" from-port="3" to-layer="253" to-port="0" />
		<edge from-layer="253" from-port="1" to-layer="254" to-port="0" />
		<edge from-layer="254" from-port="1" to-layer="255" to-port="0" />
		<edge from-layer="255" from-port="1" to-layer="256" to-port="0" />
		<edge from-layer="256" from-port="1" to-layer="257" to-port="1" />
		<edge from-layer="257" from-port="2" to-layer="258" to-port="0" />
		<edge from-layer="258" from-port="1" to-layer="259" to-port="0" />
		<edge from-layer="258" from-port="1" to-layer="260" to-port="1" />
		<edge from-layer="259" from-port="1" to-layer="260" to-port="0" />
		<edge from-layer="260" from-port="2" to-layer="261" to-port="0" />
		<edge from-layer="261" from-port="1" to-layer="264" to-port="0" />
		<edge from-layer="261" from-port="1" to-layer="282" to-port="0" />
		<edge from-layer="261" from-port="1" to-layer="273" to-port="0" />
		<edge from-layer="261" from-port="1" to-layer="262" to-port="0" />
		<edge from-layer="262" from-port="1" to-layer="263" to-port="0" />
		<edge from-layer="263" from-port="1" to-layer="444" to-port="1" />
		<edge from-layer="264" from-port="1" to-layer="265" to-port="0" />
		<edge from-layer="264" from-port="1" to-layer="269" to-port="0" />
		<edge from-layer="265" from-port="1" to-layer="266" to-port="0" />
		<edge from-layer="266" from-port="1" to-layer="267" to-port="0" />
		<edge from-layer="267" from-port="1" to-layer="268" to-port="0" />
		<edge from-layer="268" from-port="1" to-layer="277" to-port="0" />
		<edge from-layer="269" from-port="1" to-layer="270" to-port="0" />
		<edge from-layer="270" from-port="1" to-layer="271" to-port="0" />
		<edge from-layer="271" from-port="1" to-layer="272" to-port="0" />
		<edge from-layer="272" from-port="1" to-layer="277" to-port="1" />
		<edge from-layer="273" from-port="1" to-layer="274" to-port="0" />
		<edge from-layer="274" from-port="1" to-layer="275" to-port="0" />
		<edge from-layer="275" from-port="1" to-layer="276" to-port="0" />
		<edge from-layer="276" from-port="1" to-layer="277" to-port="2" />
		<edge from-layer="277" from-port="3" to-layer="278" to-port="0" />
		<edge from-layer="278" from-port="1" to-layer="279" to-port="0" />
		<edge from-layer="279" from-port="1" to-layer="280" to-port="0" />
		<edge from-layer="280" from-port="1" to-layer="281" to-port="0" />
		<edge from-layer="281" from-port="1" to-layer="282" to-port="1" />
		<edge from-layer="282" from-port="2" to-layer="283" to-port="0" />
		<edge from-layer="283" from-port="1" to-layer="302" to-port="0" />
		<edge from-layer="283" from-port="1" to-layer="284" to-port="0" />
		<edge from-layer="284" from-port="1" to-layer="285" to-port="0" />
		<edge from-layer="285" from-port="1" to-layer="286" to-port="0" />
		<edge from-layer="286" from-port="1" to-layer="287" to-port="0" />
		<edge from-layer="287" from-port="1" to-layer="288" to-port="0" />
		<edge from-layer="288" from-port="1" to-layer="297" to-port="0" />
		<edge from-layer="289" from-port="1" to-layer="290" to-port="0" />
		<edge from-layer="290" from-port="1" to-layer="291" to-port="0" />
		<edge from-layer="291" from-port="1" to-layer="292" to-port="0" />
		<edge from-layer="292" from-port="1" to-layer="297" to-port="1" />
		<edge from-layer="293" from-port="1" to-layer="294" to-port="0" />
		<edge from-layer="294" from-port="1" to-layer="295" to-port="0" />
		<edge from-layer="295" from-port="1" to-layer="296" to-port="0" />
		<edge from-layer="296" from-port="1" to-layer="297" to-port="2" />
		<edge from-layer="297" from-port="3" to-layer="298" to-port="0" />
		<edge from-layer="298" from-port="1" to-layer="299" to-port="0" />
		<edge from-layer="299" from-port="1" to-layer="300" to-port="0" />
		<edge from-layer="300" from-port="1" to-layer="301" to-port="0" />
		<edge from-layer="301" from-port="1" to-layer="302" to-port="1" />
		<edge from-layer="302" from-port="2" to-layer="303" to-port="0" />
		<edge from-layer="303" from-port="1" to-layer="305" to-port="1" />
		<edge from-layer="303" from-port="1" to-layer="304" to-port="0" />
		<edge from-layer="304" from-port="1" to-layer="305" to-port="0" />
		<edge from-layer="305" from-port="2" to-layer="306" to-port="0" />
		<edge from-layer="306" from-port="1" to-layer="318" to-port="0" />
		<edge from-layer="306" from-port="1" to-layer="309" to-port="0" />
		<edge from-layer="306" from-port="1" to-layer="307" to-port="0" />
		<edge from-layer="306" from-port="1" to-layer="327" to-port="0" />
		<edge from-layer="307" from-port="1" to-layer="308" to-port="0" />
		<edge from-layer="308" from-port="1" to-layer="444" to-port="2" />
		<edge from-layer="309" from-port="1" to-layer="314" to-port="0" />
		<edge from-layer="309" from-port="1" to-layer="310" to-port="0" />
		<edge from-layer="310" from-port="1" to-layer="311" to-port="0" />
		<edge from-layer="311" from-port="1" to-layer="312" to-port="0" />
		<edge from-layer="312" from-port="1" to-layer="313" to-port="0" />
		<edge from-layer="313" from-port="1" to-layer="322" to-port="0" />
		<edge from-layer="314" from-port="1" to-layer="315" to-port="0" />
		<edge from-layer="315" from-port="1" to-layer="316" to-port="0" />
		<edge from-layer="316" from-port="1" to-layer="317" to-port="0" />
		<edge from-layer="317" from-port="1" to-layer="322" to-port="1" />
		<edge from-layer="318" from-port="1" to-layer="319" to-port="0" />
		<edge from-layer="319" from-port="1" to-layer="320" to-port="0" />
		<edge from-layer="320" from-port="1" to-layer="321" to-port="0" />
		<edge from-layer="321" from-port="1" to-layer="322" to-port="2" />
		<edge from-layer="322" from-port="3" to-layer="323" to-port="0" />
		<edge from-layer="323" from-port="1" to-layer="324" to-port="0" />
		<edge from-layer="324" from-port="1" to-layer="325" to-port="0" />
		<edge from-layer="325" from-port="1" to-layer="326" to-port="0" />
		<edge from-layer="326" from-port="1" to-layer="327" to-port="1" />
		<edge from-layer="327" from-port="2" to-layer="328" to-port="0" />
		<edge from-layer="328" from-port="1" to-layer="329" to-port="0" />
		<edge from-layer="328" from-port="1" to-layer="347" to-port="0" />
		<edge from-layer="329" from-port="1" to-layer="330" to-port="0" />
		<edge from-layer="330" from-port="1" to-layer="331" to-port="0" />
		<edge from-layer="331" from-port="1" to-layer="332" to-port="0" />
		<edge from-layer="332" from-port="1" to-layer="333" to-port="0" />
		<edge from-layer="333" from-port="1" to-layer="342" to-port="0" />
		<edge from-layer="334" from-port="1" to-layer="335" to-port="0" />
		<edge from-layer="335" from-port="1" to-layer="336" to-port="0" />
		<edge from-layer="336" from-port="1" to-layer="337" to-port="0" />
		<edge from-layer="337" from-port="1" to-layer="342" to-port="1" />
		<edge from-layer="338" from-port="1" to-layer="339" to-port="0" />
		<edge from-layer="339" from-port="1" to-layer="340" to-port="0" />
		<edge from-layer="340" from-port="1" to-layer="341" to-port="0" />
		<edge from-layer="341" from-port="1" to-layer="342" to-port="2" />
		<edge from-layer="342" from-port="3" to-layer="343" to-port="0" />
		<edge from-layer="343" from-port="1" to-layer="344" to-port="0" />
		<edge from-layer="344" from-port="1" to-layer="345" to-port="0" />
		<edge from-layer="345" from-port="1" to-layer="346" to-port="0" />
		<edge from-layer="346" from-port="1" to-layer="347" to-port="1" />
		<edge from-layer="347" from-port="2" to-layer="348" to-port="0" />
		<edge from-layer="348" from-port="1" to-layer="350" to-port="1" />
		<edge from-layer="348" from-port="1" to-layer="349" to-port="0" />
		<edge from-layer="349" from-port="1" to-layer="350" to-port="0" />
		<edge from-layer="350" from-port="2" to-layer="351" to-port="0" />
		<edge from-layer="351" from-port="1" to-layer="352" to-port="0" />
		<edge from-layer="351" from-port="1" to-layer="372" to-port="0" />
		<edge from-layer="351" from-port="1" to-layer="363" to-port="0" />
		<edge from-layer="351" from-port="1" to-layer="354" to-port="0" />
		<edge from-layer="352" from-port="1" to-layer="353" to-port="0" />
		<edge from-layer="353" from-port="1" to-layer="444" to-port="3" />
		<edge from-layer="354" from-port="1" to-layer="355" to-port="0" />
		<edge from-layer="354" from-port="1" to-layer="359" to-port="0" />
		<edge from-layer="355" from-port="1" to-layer="356" to-port="0" />
		<edge from-layer="356" from-port="1" to-layer="357" to-port="0" />
		<edge from-layer="357" from-port="1" to-layer="358" to-port="0" />
		<edge from-layer="358" from-port="1" to-layer="367" to-port="0" />
		<edge from-layer="359" from-port="1" to-layer="360" to-port="0" />
		<edge from-layer="360" from-port="1" to-layer="361" to-port="0" />
		<edge from-layer="361" from-port="1" to-layer="362" to-port="0" />
		<edge from-layer="362" from-port="1" to-layer="367" to-port="1" />
		<edge from-layer="363" from-port="1" to-layer="364" to-port="0" />
		<edge from-layer="364" from-port="1" to-layer="365" to-port="0" />
		<edge from-layer="365" from-port="1" to-layer="366" to-port="0" />
		<edge from-layer="366" from-port="1" to-layer="367" to-port="2" />
		<edge from-layer="367" from-port="3" to-layer="368" to-port="0" />
		<edge from-layer="368" from-port="1" to-layer="369" to-port="0" />
		<edge from-layer="369" from-port="1" to-layer="370" to-port="0" />
		<edge from-layer="370" from-port="1" to-layer="371" to-port="0" />
		<edge from-layer="371" from-port="1" to-layer="372" to-port="1" />
		<edge from-layer="372" from-port="2" to-layer="373" to-port="0" />
		<edge from-layer="373" from-port="1" to-layer="374" to-port="0" />
		<edge from-layer="373" from-port="1" to-layer="392" to-port="0" />
		<edge from-layer="374" from-port="1" to-layer="375" to-port="0" />
		<edge from-layer="375" from-port="1" to-layer="376" to-port="0" />
		<edge from-layer="376" from-port="1" to-layer="377" to-port="0" />
		<edge from-layer="377" from-port="1" to-layer="378" to-port="0" />
		<edge from-layer="378" from-port="1" to-layer="387" to-port="0" />
		<edge from-layer="379" from-port="1" to-layer="380" to-port="0" />
		<edge from-layer="380" from-port="1" to-layer="381" to-port="0" />
		<edge from-layer="381" from-port="1" to-layer="382" to-port="0" />
		<edge from-layer="382" from-port="1" to-layer="387" to-port="1" />
		<edge from-layer="383" from-port="1" to-layer="384" to-port="0" />
		<edge from-layer="384" from-port="1" to-layer="385" to-port="0" />
		<edge from-layer="385" from-port="1" to-layer="386" to-port="0" />
		<edge from-layer="386" from-port="1" to-layer="387" to-port="2" />
		<edge from-layer="387" from-port="3" to-layer="388" to-port="0" />
		<edge from-layer="388" from-port="1" to-layer="389" to-port="0" />
		<edge from-layer="389" from-port="1" to-layer="390" to-port="0" />
		<edge from-layer="390" from-port="1" to-layer="391" to-port="0" />
		<edge from-layer="391" from-port="1" to-layer="392" to-port="1" />
		<edge from-layer="392" from-port="2" to-layer="393" to-port="0" />
		<edge from-layer="393" from-port="1" to-layer="395" to-port="1" />
		<edge from-layer="393" from-port="1" to-layer="394" to-port="0" />
		<edge from-layer="394" from-port="1" to-layer="395" to-port="0" />
		<edge from-layer="395" from-port="2" to-layer="396" to-port="0" />
		<edge from-layer="396" from-port="1" to-layer="397" to-port="0" />
		<edge from-layer="396" from-port="1" to-layer="417" to-port="0" />
		<edge from-layer="396" from-port="1" to-layer="408" to-port="0" />
		<edge from-layer="396" from-port="1" to-layer="399" to-port="0" />
		<edge from-layer="397" from-port="1" to-layer="398" to-port="0" />
		<edge from-layer="398" from-port="1" to-layer="444" to-port="4" />
		<edge from-layer="399" from-port="1" to-layer="404" to-port="0" />
		<edge from-layer="399" from-port="1" to-layer="400" to-port="0" />
		<edge from-layer="400" from-port="1" to-layer="401" to-port="0" />
		<edge from-layer="401" from-port="1" to-layer="402" to-port="0" />
		<edge from-layer="402" from-port="1" to-layer="403" to-port="0" />
		<edge from-layer="403" from-port="1" to-layer="412" to-port="0" />
		<edge from-layer="404" from-port="1" to-layer="405" to-port="0" />
		<edge from-layer="405" from-port="1" to-layer="406" to-port="0" />
		<edge from-layer="406" from-port="1" to-layer="407" to-port="0" />
		<edge from-layer="407" from-port="1" to-layer="412" to-port="1" />
		<edge from-layer="408" from-port="1" to-layer="409" to-port="0" />
		<edge from-layer="409" from-port="1" to-layer="410" to-port="0" />
		<edge from-layer="410" from-port="1" to-layer="411" to-port="0" />
		<edge from-layer="411" from-port="1" to-layer="412" to-port="2" />
		<edge from-layer="412" from-port="3" to-layer="413" to-port="0" />
		<edge from-layer="413" from-port="1" to-layer="414" to-port="0" />
		<edge from-layer="414" from-port="1" to-layer="415" to-port="0" />
		<edge from-layer="415" from-port="1" to-layer="416" to-port="0" />
		<edge from-layer="416" from-port="1" to-layer="417" to-port="1" />
		<edge from-layer="417" from-port="2" to-layer="418" to-port="0" />
		<edge from-layer="418" from-port="1" to-layer="419" to-port="0" />
		<edge from-layer="418" from-port="1" to-layer="437" to-port="0" />
		<edge from-layer="419" from-port="1" to-layer="420" to-port="0" />
		<edge from-layer="420" from-port="1" to-layer="421" to-port="0" />
		<edge from-layer="421" from-port="1" to-layer="422" to-port="0" />
		<edge from-layer="422" from-port="1" to-layer="423" to-port="0" />
		<edge from-layer="423" from-port="1" to-layer="432" to-port="0" />
		<edge from-layer="424" from-port="1" to-layer="425" to-port="0" />
		<edge from-layer="425" from-port="1" to-layer="426" to-port="0" />
		<edge from-layer="426" from-port="1" to-layer="427" to-port="0" />
		<edge from-layer="427" from-port="1" to-layer="432" to-port="1" />
		<edge from-layer="428" from-port="1" to-layer="429" to-port="0" />
		<edge from-layer="429" from-port="1" to-layer="430" to-port="0" />
		<edge from-layer="430" from-port="1" to-layer="431" to-port="0" />
		<edge from-layer="431" from-port="1" to-layer="432" to-port="2" />
		<edge from-layer="432" from-port="3" to-layer="433" to-port="0" />
		<edge from-layer="433" from-port="1" to-layer="434" to-port="0" />
		<edge from-layer="434" from-port="1" to-layer="435" to-port="0" />
		<edge from-layer="435" from-port="1" to-layer="436" to-port="0" />
		<edge from-layer="436" from-port="1" to-layer="437" to-port="1" />
		<edge from-layer="437" from-port="2" to-layer="438" to-port="0" />
		<edge from-layer="438" from-port="1" to-layer="440" to-port="1" />
		<edge from-layer="438" from-port="1" to-layer="439" to-port="0" />
		<edge from-layer="439" from-port="1" to-layer="440" to-port="0" />
		<edge from-layer="440" from-port="2" to-layer="441" to-port="0" />
		<edge from-layer="441" from-port="1" to-layer="442" to-port="0" />
		<edge from-layer="442" from-port="1" to-layer="443" to-port="0" />
		<edge from-layer="443" from-port="1" to-layer="444" to-port="5" />
		<edge from-layer="444" from-port="6" to-layer="445" to-port="0" />
		<edge from-layer="445" from-port="1" to-layer="446" to-port="0" />
		<edge from-layer="445" from-port="1" to-layer="456" to-port="0" />
		<edge from-layer="446" from-port="1" to-layer="447" to-port="0" />
		<edge from-layer="447" from-port="1" to-layer="448" to-port="0" />
		<edge from-layer="448" from-port="1" to-layer="449" to-port="0" />
		<edge from-layer="449" from-port="1" to-layer="450" to-port="0" />
		<edge from-layer="450" from-port="1" to-layer="451" to-port="0" />
		<edge from-layer="451" from-port="1" to-layer="452" to-port="0" />
		<edge from-layer="452" from-port="1" to-layer="453" to-port="0" />
		<edge from-layer="453" from-port="1" to-layer="454" to-port="0" />
		<edge from-layer="454" from-port="1" to-layer="455" to-port="0" />
		<edge from-layer="456" from-port="1" to-layer="457" to-port="0" />
		<edge from-layer="457" from-port="1" to-layer="458" to-port="0" />
		<edge from-layer="458" from-port="1" to-layer="459" to-port="0" />
		<edge from-layer="459" from-port="1" to-layer="460" to-port="0" />
		<edge from-layer="460" from-port="1" to-layer="461" to-port="0" />
	</edges>
	<rt_info />
</net>
